policy.onnx (onnx, 321460 bytes, 6 tensors)

_lyrs.0.bias f4 [256]
000000 b8 40 8f 3c a9 e4 e2 3c 4b e2 f9 3d aa a3 22 bd
       0.017486915 0.027696924 0.12201365 -0.039706863
000010 39 a7 b2 3b 4f c8 2d 3d 68 41 06 bd 30 c4 06 3e
       0.0054520634 0.042427357 -0.03277722 0.13160777
000020 79 f4 56 bd a3 c7 67 bc 86 0a 98 3d 22 c7 ff 3c
       -0.05247924 -0.014146718 0.07423882 0.031222884
000030 e5 28 c9 3d 05 90 18 3e d2 ee 9f bd 3a 05 0f bd
       0.09822253 0.14898689 -0.07809223 -0.034917094
000040 fb 26 0d be b4 be 32 3d cb 71 76 bd 3a 3d 9a 3d
       -0.13784401 0.0436389 -0.060167115 0.07531209
000050 c9 58 52 3e 28 d6 45 3e d8 8d c9 3d 00 1f 8c bd
       0.20541681 0.19319975 0.09841508 -0.0684185
000060 d6 a2 12 3d 7a 86 b9 bc f2 a5 94 bd 95 cb 14 be
       0.035799824 -0.022647131 -0.07258214 -0.14530785
000070 f0 b9 aa bd a2 20 95 bd 56 24 64 3d cd ab e9 bd
       -0.08336246 -0.07281615 0.055698715 -0.114097215
000080 8a f9 f6 bd fa e0 21 bd c6 c8 e5 bd 3d 7c 9d bc
       -0.120593145 -0.039521195 -0.11219935 -0.01922428
000090 08 ca 6d 3c 94 4b 71 3c b0 d3 91 3c b4 0f 92 bd
       0.0145135 0.014727492 0.017801136 -0.071319014
0000a0 55 48 1d be ba 54 58 3c 3d e7 99 3d 84 9d 8e 3d
       -0.15359624 0.013203794 0.07514808 0.069636375
0000b0 b3 22 8a bd a9 95 15 bd 67 dc dd bc 08 99 45 3d
       -0.067448996 -0.03651968 -0.027082635 0.048241645
0000c0 9b 44 af bd 8a f0 65 3d 64 02 d1 bc 8a 84 c3 bc
       -0.08558007 0.0561376 -0.025513835 -0.02386691
0000d0 6d b2 9e 3d c1 73 0c 3d fb 90 2b 3e 74 87 14 3d
       0.07748876 0.03429008 0.16754524 0.03626199
0000e0 4e ff 6d be 90 0a b7 3d 47 ab 1e bd c5 8b 9f bd
       -0.23241922 0.089375615 -0.03873756 -0.07790331
0000f0 b7 d6 e7 bd 67 31 37 be 44 fa 68 be c5 11 21 3d
       -0.113202505 -0.17889939 -0.22751719 0.039323587
000100 33 11 51 bd 1b c9 d2 3d a3 61 07 be 01 2c 31 3d
       -0.051041793 0.10292264 -0.13220839 0.043254856
000110 e7 6d b7 bd 37 8f 83 3e 7e e3 10 3d 5a c6 2d 3e
       -0.08956509 0.25695202 0.035373203 0.16970196
000120 f4 36 51 3d 0b 58 e9 bd ab e6 4c bd c5 1e 77 3e
       0.051077798 -0.11393746 -0.05002467 0.24132831
000130 bf bd 3f bd e8 b3 0e be 40 41 12 3d 54 59 14 3e
       -0.046811815 -0.13935816 0.03570676 0.14487201
000140 45 d4 d6 3d aa b0 de bd 6e 3a e9 3d 27 97 bc bd
       0.10489706 -0.1087354 0.11388098 -0.092085175
000150 0c b5 d6 bd 18 fa b6 3d ed f0 45 3d f9 2d 74 bd
       -0.10483751 0.0893442 0.048325468 -0.059614155
000160 64 60 55 3d ac 28 89 39 7f 81 4f 3d 8f 4b 05 bd
       0.05209388 0.0002616098 0.050660606 -0.03254276
000170 e2 dd 02 bd c6 19 90 bb 1b 9d f0 3d 5f 69 c0 bd
       -0.031949885 -0.0043976037 0.117487155 -0.09395098
000180 f6 cf 83 bd 02 92 31 bd 39 5d 05 be 74 b5 6c bc
       -0.0643615 -0.043352135 -0.13023843 -0.014447559
000190 ac ac 80 3c 4e d3 d6 bd 8a dc 53 3d 39 63 0b 3d
       0.015707336 -0.10489522 0.051723994 0.034030173
0001a0 84 2a 68 bc 98 5b 98 3d 05 e8 c7 3d 16 86 09 bd
       -0.014170293 0.07439345 0.09761051 -0.03357514
0001b0 11 3b 4c 3d 54 d5 f2 bd 80 76 5c bd c4 a3 64 3d
       0.049861018 -0.11857095 -0.053823948 0.05582024
0001c0 b8 7e 59 bd 0c 57 d3 3d ec 01 e8 3d 95 9a 18 be
       -0.053099364 0.10319337 0.113284916 -0.14902718
0001d0 90 de e7 bc 74 48 b1 3c e4 4c 09 be 55 8e 44 3d
       -0.028304368 0.021640994 -0.13408238 0.0479873
0001e0 82 a7 90 3d 22 65 69 bd 95 e8 ac bc 26 ed ce 3d
       0.070631996 -0.056981213 -0.021106998 0.10103826
0001f0 5f e3 3b bc 65 6f 32 3e e6 ca 37 be 34 d4 f2 bd
       -0.011467784 0.17425306 -0.17948493 -0.11856881
000200 33 09 f3 bc 2f 65 14 3e 21 99 07 bd 4b 8f 41 be
       -0.029667472 0.14491723 -0.03310502 -0.18902318
000210 ea 1b f1 bd ac 0a ae bd 83 1f ad bd e6 d1 a4 3d
       -0.11772902 -0.08498129 -0.08453276 0.080478474
000220 5c 3c 53 3e 20 7b ef 3d 07 47 a8 bd d9 b2 4a bd
       0.20628494 0.11693406 -0.082166724 -0.04948697
000230 33 fb 1c bd 79 2a 17 be 25 04 09 3d e0 06 21 3e
       -0.0383255 -0.14762296 0.03345122 0.15725279
000240 eb 38 17 bd 2a 1d 5a bd 29 75 e2 bc ba d2 1a be
       -0.036919516 -0.05325047 -0.027643757 -0.15119448
000250 b2 f5 26 3c aa d7 01 be c3 a1 4b 3e bb 89 38 be
       0.010190414 -0.12679926 0.19885926 -0.1802129
000260 83 e5 c8 bd f2 16 1c be 10 a9 f2 bd d1 2a a0 3d
       -0.09809401 -0.15243128 -0.11848652 0.078206666
000270 aa 57 0d 3d 96 3b 16 be 2c 24 82 3b 44 de a1 bc
       0.03450743 -0.14671168 0.003971597 -0.019759305
000280 fa 6c 96 bd 9c cb 86 bd 39 a9 46 bd 05 c1 7c bd
       -0.073450044 -0.06581804 -0.048501227 -0.061707515
000290 a1 9d 48 be c3 10 07 be ed 5b ac 3d ce 9d 54 be
       -0.1959138 -0.13189988 0.08415971 -0.20763323
0002a0 2e b5 37 be e2 c1 14 be 88 6e b8 bb b5 24 6e 3d
       -0.17940208 -0.14527085 -0.0056284107 0.058140475
0002b0 55 c7 ae 3d 04 41 64 bd e1 83 2e bb 4e 0a 12 3d
       0.08534113 -0.055726066 -0.00266289 0.03565436
0002c0 0f 74 94 3d 69 18 01 3e 1a fc 08 bb 05 be 59 3e
       0.07248699 0.12606968 -0.0020902217 0.21263893
0002d0 90 d5 19 bd e6 66 99 3d 4a 6d 57 bd bf 80 f9 3d
       -0.037557185 0.074903294 -0.05259446 0.121827595
0002e0 00 14 4f bb 74 c1 b0 3c f1 db b7 3d 74 67 ec bd
       -0.0031597614 0.02157662 0.08977497 -0.115431696
0002f0 c1 af 04 be 83 b6 dc bd 0e c5 81 bd 96 e1 ee 3d
       -0.1295767 -0.10776999 -0.06336413 0.11664121
000300 91 2d a1 bd c3 f6 96 bd be b7 4a be 10 2a 0e bd
       -0.07870019 -0.07371285 -0.19796655 -0.034708083
000310 ce 4e 4a 3d c7 bd db 3c 75 d3 c7 3c 03 a7 c3 3d
       0.04939156 0.026823891 0.024392823 0.09553339
000320 0b 4d 68 bd 90 91 7b bd ce e3 63 bd ba 12 0b 3e
       -0.0567141 -0.061418116 -0.055637173 0.13581362
000330 16 5f 97 bc e2 c6 96 bd b0 7e 25 be 90 ef f8 3c
       -0.018477958 -0.07362153 -0.16161609 0.03038767
000340 3c f5 49 3c 6b 34 e0 bd 3f 52 f7 bd 38 41 17 be
       0.012326535 -0.10947498 -0.12076234 -0.14770973
000350 31 ab 91 3d a7 d5 ad 3c c2 6f 1a be 1a c5 a6 3d
       0.0711273 0.021220041 -0.15081695 0.08143063
000360 05 52 bf bd 37 5f 0f 3d 33 7e 80 bd 3c 42 b6 bd
       -0.09341816 0.035002913 -0.062740706 -0.08899352
000370 c3 b9 de bd b5 68 14 bd d7 b2 e3 3d 81 76 07 3d
       -0.10875275 -0.03623267 0.11118095 0.033072
000380 be 43 e1 3d a7 ea 8b 3d 96 ca cc 3d 82 df aa bc
       0.10999249 0.06831866 0.09999578 -0.02085853
000390 c2 bf 16 3c 9a 03 6e 3e fb 06 65 3d 57 23 28 be
       0.009200992 0.23243561 0.05591486 -0.16419731
0003a0 b1 79 9c 3d d9 a0 6a bc f2 a4 27 3e 39 68 85 bd
       0.07640398 -0.014320576 0.16371515 -0.065140195
0003b0 1a ff e8 bd ac 7f 05 be a1 a4 01 be cb 5d 31 3e
       -0.11376782 -0.13036984 -0.12660457 0.17320935
0003c0 32 06 a9 bd d8 ad fa bd af 0b 97 ba d5 f0 2c bd
       -0.08253135 -0.12240189 -0.0011523868 -0.042221863
0003d0 ac 41 8f bc 07 b1 18 3e cd 0f f2 3a cd 7b ab bd
       -0.01748737 0.1491128 0.0018467844 -0.083732225
0003e0 76 7a fd 3d e4 c3 29 bc a3 34 80 bd 63 4c a8 bd
       0.12376873 -0.010361645 -0.0626004 -0.082176946
0003f0 1b 16 c6 bc 3f aa c5 ba 72 30 cf 3d a2 7f 6e 3d
       -0.024180463 -0.0015080645 0.10116662 0.05822719

_lyrs.1.bias f4 [256]
000000 20 66 8b bd 7c e0 c1 3d b4 ba 05 be 71 1c d4 3d
       -0.06806588 0.09466645 -0.13059503 0.10356987
000010 d7 8f 7f be 60 70 d3 3d f9 13 4a bd a2 bc 70 3d
       -0.24957214 0.10324168 -0.049335454 0.058773644
000020 5d a6 b5 3d 7a 30 43 be 01 2b 5f bd 93 d3 0a bd
       0.08869622 -0.19061461 -0.05448437 -0.03389318
000030 ca d9 95 bd c7 67 14 bd 9d d2 3c bc ce c0 bf bb
       -0.073169306 -0.036231782 -0.0115248235 -0.0058518415
000040 9f 90 fc 3d 7f ec 54 bc 34 2a 2e bc 79 d1 12 3d
       0.12332272 -0.012995838 -0.010630179 0.0358443
000050 1f 63 a3 3d 4a e3 99 bd 47 b6 bc bd 96 03 fa 3d
       0.0797789 -0.07514055 -0.09214454 0.12207715
000060 7d 17 de 3d d1 2e 06 3d 1f 57 40 3d 21 0d 00 3e
       0.10844324 0.03275949 0.046958085 0.12505008
000070 34 96 f8 3c 48 92 30 bc fc ce ea 3c e4 3b a1 bc
       0.03034506 -0.010777064 0.028663151 -0.019681878
000080 15 cd 6e bd a3 bd 2a 3d f9 0e d8 bc d9 57 15 bd
       -0.05830105 0.041684758 -0.026374327 -0.03646073
000090 f9 b2 d1 bc d4 8c 8b 3d 08 5b b6 3d ad 4e be bd
       -0.025598036 0.0681397 0.089040816 -0.0929235
0000a0 96 3b 84 bd 22 45 fc bd 32 31 db bd 46 58 9c bc
       -0.064566776 -0.123178735 -0.10702743 -0.01908506
0000b0 dd 75 9d 3c 8d 2f 32 bd 28 98 e6 3d cb ce af bd
       0.01922124 -0.04350238 0.1125949 -0.085843645
0000c0 cf e2 3b 3d 7f 1c 13 3e ac dc 5f 3d 22 8e ad 3a
       0.0458706 0.14366339 0.05465381 0.0013241211
0000d0 81 c4 5a 3c b6 c6 04 3d 1b 28 01 3d 3d 0c db bd
       0.013352514 0.032416068 0.03153239 -0.10695694
0000e0 4d 1c 07 be bf 5a 91 bc 31 58 28 bd e1 83 a4 bc
       -0.1319439 -0.017743466 -0.04109973 -0.020082416
0000f0 93 3f f8 bc 69 e8 47 3d 79 36 43 3d c4 1a f9 bc
       -0.030303752 0.048805628 0.04765937 -0.03040827
000100 9f fa 82 3d fd 51 e4 bd 54 d9 a5 bd 89 8e 53 3b
       0.063954584 -0.111484505 -0.08098093 0.0032281002
000110 6c cb 15 3d bd d6 60 bd 42 1c e0 3c 77 5a aa 3d
       0.03657095 -0.05489229 0.027357224 0.08318036
000120 ad 1c aa 3d e9 fb 16 3c 57 59 a3 bd 50 7d 93 bc
       0.08306251 0.0092153335 -0.079760246 -0.01800409
000130 79 90 d5 3d ef bd 83 bd ad 3a 6c 3d 30 73 c6 3c
       0.104279466 -0.06432711 0.057673145 0.024224848
000140 16 5c 68 bc 86 79 43 3d da 7e 86 3c a8 47 b9 bd
       -0.014182111 0.047723316 0.01641791 -0.090468705
000150 ce 09 3e 3d a0 20 4d 3d 88 82 39 3d bb 5e a2 bd
       0.04639607 0.05007994 0.0452905 -0.07928225
000160 16 3c 2d bc e3 77 0b be c4 1f dd 3d a1 58 85 3c
       -0.010573408 -0.13619952 0.107970744 0.016277613
000170 8a c5 20 bb f0 05 f1 3c 38 75 a7 bd dc 25 64 bc
       -0.0024531805 0.029421777 -0.081766546 -0.013925042
000180 a2 8e 45 3d a2 58 4e 3c aa 22 9e 3d be 18 f7 bd
       0.04823173 0.012594374 0.077214554 -0.12065266
000190 72 19 90 bc 49 d8 eb 3c 41 1e da 3d 8d a7 32 bd
       -0.017590258 0.028789656 0.10650302 -0.04361682
0001a0 c6 b8 ba 3d 70 2f 53 bc da f8 45 bc ca 5f 02 3d
       0.09117274 -0.012889728 -0.012083257 0.031829633
0001b0 0d ba 72 bc 42 d4 2e bc cd bd a2 bc 70 e6 48 bd
       -0.014814866 -0.010670723 -0.019865895 -0.049047887
0001c0 ff 33 3f bd 8a 63 83 3e 13 19 5b bd ee 07 06 be
       -0.046680447 0.2566188 -0.05349071 -0.13088962
0001d0 62 96 2d 3d bd fc dc 3d 2c 31 b1 3e 90 6c 23 be
       0.042379744 0.107903935 0.34607828 -0.15959382
0001e0 8a 7e 65 bd d6 3d df 3c 1d 2a 3f 3d b1 bb 29 3e
       -0.05602888 0.027251165 0.04667102 0.16575505
0001f0 9f 8c 10 3a 74 0e cb 3d 3d c2 d7 3c c3 34 ce 3c
       0.0005514118 0.09914866 0.026337737 0.025171643
000200 ff 39 08 be b2 e0 30 3e 90 20 14 be 6c a3 5c 3b
       -0.13303374 0.17273214 -0.14465547 0.0033666743
000210 4b 24 78 bd f9 c3 c5 3d 01 b3 70 3d 88 5e 80 bb
       -0.060581487 0.096565194 0.05876446 -0.003917519
000220 c0 91 5e 3a a6 4c 0b 3d b3 a7 79 bd de c4 b9 bb
       0.00084903464 0.034008645 -0.060950946 -0.0056692204
000230 f1 a7 05 bd 11 c8 a2 bc c2 21 0c bd 7b b0 21 bc
       -0.032630865 -0.01987079 -0.03421188 -0.009868736
000240 83 5d fc bc 83 67 82 3b 5d 5a 39 bb 14 02 03 bd
       -0.030806309 0.0039796247 -0.002828262 -0.031984404
000250 98 d1 62 3d cc 14 02 be 1b 03 5b 3e 23 53 30 be
       0.055375665 -0.12703246 0.21387903 -0.17219214
000260 5d 19 2c bb c4 e2 da 3d 6f dc ae bd df a1 80 bc
       -0.0026260235 0.10687783 -0.08538138 -0.015702186
000270 59 2b 28 ba db ad 94 bd 9a eb 29 3e f8 0f 73 bd
       -0.0006415151 -0.07259723 0.16593781 -0.0593414
000280 21 e8 ba bc ad 24 0e 3e ca 28 22 be ab 56 1a bd
       -0.022815766 0.13881178 -0.15835872 -0.03768031
000290 6a 72 c4 3d df 8d d0 bd 4d d3 da 3c 11 61 a1 bc
       0.09592135 -0.1018331 0.026712084 -0.019699605
0002a0 6b 30 f0 bc 83 bc bb bd 30 38 8d bd 00 db 88 bd
       -0.029319962 -0.09166815 -0.068954825 -0.06682396
0002b0 dd d3 86 be b7 ec e2 3c 28 cb 8c bd 46 98 dd 3d
       -0.26333514 0.027700765 -0.068746865 0.108200595
0002c0 a3 11 fc bc 52 f9 a4 bd ff 91 24 3d ad cf 7c bc
       -0.030770129 -0.080553666 0.040178295 -0.015430373
0002d0 be b8 0d 3e eb fc b0 bd c8 25 a1 bc ec 7d 18 be
       0.13840005 -0.0864199 -0.019671336 -0.14891785
0002e0 f7 bc d6 3d 41 21 05 3d 6a fe 9d bd 29 67 e9 3c
       0.10485261 0.032502417 -0.07714541 0.028491573
0002f0 79 0a 6e 3c d7 98 df 3b 4f 5e 78 bd 3c a9 e3 bc
       0.014528864 0.00682364 -0.060636815 -0.027790658
000300 a4 fd b5 bd 34 89 18 3d 47 72 67 3c 80 ed 18 be
       -0.08886269 0.037240222 0.014126367 -0.14934349
000310 b0 02 fe bc 5f a9 f3 3c dd 59 84 bd 35 bb 11 bd
       -0.03100714 0.029743848 -0.064624526 -0.035578925
000320 8c 39 68 3c a1 70 9c bd 9d 3f e5 3c f7 6a 61 3c
       0.0141738765 -0.0763867 0.027984435 0.013758413
000330 2b 82 05 3d c0 3a 6d 3e d9 78 a8 bd 39 6c a9 bd
       0.03259484 0.23166943 -0.08226175 -0.08272595
000340 7a eb 9d bc 7a 87 00 3b 2a 13 1b bc 3a a4 d0 3c
       -0.019277323 0.0019612 -0.009465018 0.025468934
000350 88 d5 50 bd 5d 39 f1 3d b2 d0 12 bc 7b 5a ad bd
       -0.05098489 0.11778519 -0.00896089 -0.084645234
000360 ac b6 e3 bc 03 26 82 3b 29 fe 04 3d 11 91 96 3e
       -0.027797066 0.0039718165 0.03246895 0.29407552
000370 51 e8 32 3b c6 b6 8c 3c ef ad f7 3c 85 11 96 3c
       0.0027299116 0.017176997 0.030234305 0.0183189
000380 4e 65 74 bb a9 09 8f bc a8 5c fd 3c a5 99 cf 3d
       -0.0037291828 -0.017460661 0.030927971 0.10136727
000390 91 bc 44 3e 00 74 89 3e 3b 43 a7 bb 05 75 29 bd
       0.19212557 0.26846313 -0.00510445 -0.041371364
0003a0 2a 38 16 bd 6f 17 0f 3e 14 f6 63 bd 83 5a 22 bc
       -0.036674656 0.13973783 -0.0556546 -0.009909275
0003b0 81 42 ab bd 14 0b 22 be ca 66 d6 3d 64 28 cd 3d
       -0.08362294 -0.15824538 0.10468824 0.100174695
0003c0 80 58 e5 3d 61 5d 80 3d 54 a3 62 bd b5 18 29 be
       0.11198521 0.062678106 -0.055331543 -0.16513331
0003d0 16 04 d8 3d 85 13 0b bd b1 50 b2 bd 4a 5b 38 bd
       0.10547654 -0.033954162 -0.08706797 -0.045008935
0003e0 2f ea 6c bd ad 67 2e 3d ac 88 fd bd a5 21 17 3d
       -0.057840522 0.04257934 -0.12379584 0.03689732
0003f0 06 af 00 bd 60 ed ea 3c 62 88 61 3c 68 6b 56 3d
       -0.031416915 0.028677642 0.013765426 0.052348524

_mean_lyr.bias f4 [6]
000000 a0 fd 39 3d b1 71 ac 3d 23 96 86 3d 36 78 0d be
       0.04540789 0.084201224 0.06571605 -0.13815388
000010 e1 60 c9 bd 36 b2 0e 3d
       -0.09832931 0.034837924

onnx::MatMul_21 f4 [49, 256]
000000 e6 63 35 be a8 ff 96 3d 21 9a 59 bd c0 43 73 bd
       -0.1771389 0.07372981 -0.053125504 -0.059390783
000010 e6 78 82 3c 9d 78 3c 3d 2e 78 2b bd e0 fa 52 3e
       0.01592679 0.046013463 -0.04186266 0.20603514
000020 9f 4e 06 be ff a5 1c 3d 3f 7c a6 3d 71 73 04 bd
       -0.13115929 0.038244244 0.08129167 -0.032336656
000030 60 74 54 3d 43 87 6b 3e 12 22 bc bd d9 28 94 3c
       0.051868796 0.23000817 -0.09186186 0.018085884
000040 8e e7 7d 3d 1e 38 a6 3c 4c 8c ba be 8b 0f 91 3d
       0.061988406 0.02029043 -0.36435163 0.07083043
000050 87 d4 8c bc 2e e8 82 3e c3 fd ac bc d8 89 e1 3c
       -0.017191185 0.25567764 -0.021117097 0.02753155
000060 00 4e d7 3c a4 6b 93 3d 1b 3b be bd 86 31 8c bd
       0.02628231 0.07198265 -0.09288617 -0.06845383
000070 3c 96 0f bd 12 80 f4 bb a0 f2 df 3d 37 fd 4b be
       -0.035055384 -0.0074615562 0.10934949 -0.19920813
000080 cc 0c 0c 3c c0 33 37 3e ee cf de bc f5 1a a7 3d
       0.008547973 0.17890835 -0.027198758 0.081594385
000090 9a 3d 11 3d a2 8a 5a bd 45 64 fd 3d 65 22 c4 bd
       0.03545914 -0.053354867 0.123726405 -0.09576873
0000a0 3c 46 19 3c f4 9d 0f be 25 d1 2c be b2 98 8e 3e
       0.009355124 -0.14025098 -0.16876657 0.27850872
0000b0 e1 3a 0e 3e 4b 50 47 3e 00 10 5b bc 5c 69 25 3e
       0.13889648 0.19464223 -0.013370514 0.16153473
0000c0 ff 3c 4a 3e 9d 3c 08 be bf 1e 82 3d 16 1c 9e 3d
       0.1974983 -0.13304372 0.063535206 0.07720201
0000d0 4d e6 20 3e c8 b9 8a be e8 e9 0f 3c 3d 6e 8a be
       0.15712853 -0.27094865 0.008783795 -0.2703723
0000e0 6b 1a eb 3d 97 84 ca bc 92 9f 85 bd c7 22 93 3d
       0.11479648 -0.024721427 -0.06524576 0.071843676
0000f0 24 75 68 3e 8d e7 43 3e e1 71 24 be dd 23 2c 3d
       0.22700936 0.19131298 -0.16059066 0.04202639
000100 a0 ff 2e 3c 4a 29 9b 3d fa cf 73 bb 3f df 0a bb
       0.010681063 0.07576235 -0.003720282 -0.0021190194
000110 60 e9 fe bd ac 29 09 be bb 37 95 bd 16 96 92 be
       -0.124468565 -0.13394803 -0.0728602 -0.2863013
000120 86 31 39 3e 90 ca 00 3d f4 fd b3 3d 66 ee 83 3e
       0.18085298 0.03144318 0.08788672 0.2576782
000130 c6 5c 1d 3e 92 8c 6b 3e da 2a d2 bd 45 05 ba be
       0.15367422 0.23002842 -0.102620795 -0.36332145
000140 81 6b 84 bd 08 b0 e4 3d b6 1f 05 3d a2 28 e5 3d
       -0.06465817 0.11166388 0.032500945 0.11189391
000150 03 2b 55 bd f7 31 b7 bd ac 3a dc 3d fc d0 e4 bd
       -0.052042972 -0.08945077 0.10753378 -0.11172673
000160 b6 b4 30 bd 29 19 2e bd 98 d6 c6 bd 70 f7 9e 3d
       -0.04314109 -0.042504463 -0.09708899 0.07762039
000170 25 17 43 3e bd f0 d0 3d b4 d8 8f 3e 37 3e 2d 3c
       0.19051798 0.10202167 0.2809502 0.010573915
000180 f0 ef b6 bb ff 8c e1 3d 13 d5 5f be 49 e4 33 3e
       -0.005582802 0.11013221 -0.21858625 0.17567553
000190 d5 bb ad bd 8d 42 9e 3e 26 a0 b2 3c ee 3c 50 bc
       -0.08483092 0.3091015 0.02180488 -0.012709839
0001a0 4d cf 20 3e 05 a2 21 be db bb 83 be fb 37 cf 3d
       0.15704079 -0.15784462 -0.2572926 0.10118099
0001b0 96 34 8a ba 45 77 1d bc 14 72 f7 3c 56 a2 f7 bd
       -0.0010544236 -0.009610956 0.030205764 -0.1209151
0001c0 90 26 ef 3d 64 07 79 be da db 3f be df a6 0c be
       0.11677277 -0.24319226 -0.1873621 -0.13735531
0001d0 d9 c9 8b 3c 6e f2 68 bd d3 0b 15 3e 10 fc 39 3e
       0.017064022 -0.056871824 0.14555292 0.1816256
0001e0 5d b3 13 be c4 ea e8 3d fa 57 1f 3d 04 26 86 bc
       -0.1442389 0.11372903 0.03890226 -0.01637555
0001f0 2e 15 a3 be e4 92 97 bd 51 ad ca bc ac 18 d4 3d
       -0.31852096 -0.07401064 -0.024740847 0.10356268
000200 d1 13 05 be ee 57 06 3e 92 bd 15 3d f9 a2 86 be
       -0.1299584 0.1311948 0.03655774 -0.26296213
000210 75 6e 83 3d a6 31 4d be ad 24 06 be 8e ae b8 bd
       0.064175524 -0.2003847 -0.13099928 -0.09017669
000220 fb a7 96 be f1 52 08 bb 7f 75 c1 bd 01 86 6d 3c
       -0.29425034 -0.002080139 -0.09446239 0.014497281
000230 07 e4 d1 3d 92 0d 15 3e 31 2a 20 bb cd ce 2c be
       0.10248571 0.14555958 -0.002443921 -0.16875763
000240 bb e2 37 3b e0 6f 8b 3c 54 1d 24 be 81 90 53 be
       0.0028058726 0.01702112 -0.16026813 -0.20660593
000250 45 2a 81 3d 66 98 16 be 8f a9 32 be 52 b7 5f bd
       0.063068904 -0.14706573 -0.17447494 -0.054618187
000260 19 c9 7b bd e8 62 08 3e 9c 95 2d be 48 6f a7 bd
       -0.06147108 0.1331898 -0.16951603 -0.08175522
000270 eb b0 29 3d d7 5a 96 be c7 54 8d 3e a8 14 8b bd
       0.041428488 -0.2936618 0.27603742 -0.06791049
000280 a7 02 f2 bd 2d b4 bf 3d dc ee 24 be 8f 66 44 3e
       -0.11816912 0.09360538 -0.16106743 0.19179748
000290 25 3a 2d be 24 0d 1b 3d 4c 60 a1 3d 9f 69 58 3c
       -0.16916712 0.03785433 0.07879695 0.013208776
0002a0 22 49 2d be 5e 92 27 bd 3f 2d 6c bd 3d 1d 18 be
       -0.16922429 -0.04091107 -0.057660338 -0.14854904
0002b0 5b 1c ff bd 84 99 57 3d 2b 76 6f 3d d6 6e f9 bc
       -0.1245658 0.05263664 0.058462303 -0.030448359
0002c0 ff 84 18 3e dd bb 58 bd 3e ab 23 be f6 a6 ed 3c
       0.14894484 -0.052913535 -0.15983292 0.029010277
0002d0 5e a8 20 bd f5 61 c2 3d ce 62 f2 bc 6a 1d 5c be
       -0.039223067 0.0949134 -0.02958813 -0.21495596
0002e0 60 2c c6 bd 33 41 94 3d 10 8a a7 3d 2c 7f 03 be
       -0.096764326 0.07238998 0.0818063 -0.12841481
0002f0 db e9 4b 3d e5 a4 0a 3e 50 b7 46 3e b8 7a 06 be
       0.04978357 0.13539465 0.19405866 -0.13132751
000300 59 bc 40 3e 24 14 95 3d 81 72 8b 3c 2b 39 0e 3e
       0.18821849 0.07279232 0.017022373 0.13888995
000310 e0 07 bc bd 21 88 0f 3e 9b a7 e8 bd ba 2c 17 3c
       -0.091811895 0.14016773 -0.11360093 0.009226972
000320 f8 01 b9 ba f5 aa c3 bd a1 72 31 3e 01 09 01 be
       -0.0014114967 -0.09554092 0.17328884 -0.12601091
000330 a0 40 55 3e 9e 23 8c 3c 03 91 76 3d b9 ae 10 3c
       0.20825434 0.017106827 0.060196888 0.00883072
000340 4a 19 04 be 17 5e 0f be f2 6b eb bd 88 54 0c 3e
       -0.12900272 -0.14000736 -0.11495198 0.13704121
000350 dc ae 98 3d 63 92 ea 3d 05 2c b0 3d f5 2e 35 be
       0.07455227 0.11453702 0.08602146 -0.17693694
000360 39 3f 73 be c2 b2 bd 3d e0 49 f1 bd 17 e8 6a 3c
       -0.23754586 0.09262611 -0.11781669 0.014337561
000370 2f e7 fc 3d 1c 1b 29 3d 3c b6 d3 3d 0b 0a 59 3d
       0.12348782 0.04128562 0.10337493 0.052988093
000380 25 80 38 3d 60 f7 c8 bc d2 40 f5 3d 7a 19 b0 3d
       0.045044083 -0.02453202 0.11975254 0.08598609
000390 70 fc 84 bb f1 cd 35 3d 43 e7 dc 3d 88 e3 94 bd
       -0.004058413 0.044385854 0.10786297 -0.07269961
0003a0 a2 54 a0 bd 49 db 60 3e 9e 99 84 bb 08 85 8b bb
       -0.078286424 0.2195865 -0.004046633 -0.004257802
0003b0 f0 69 1f be 13 f9 1c 3e 13 9f 3f be 5b a6 c7 3c
       -0.15567756 0.1532939 -0.18713026 0.024371317
0003c0 6c 3e 18 b9 2c 63 f0 bd 98 1c 93 bd 05 a3 99 bd
       -0.00014519104 -0.117376655 -0.07183188 -0.07501797
0003d0 ff 57 31 3e 24 b8 00 be 18 0e 61 3e bf e9 bb 3d
       0.17318724 -0.12570244 0.21978033 0.09175443
0003e0 4f ef 82 3d 44 e6 c0 bd 1c 3e c4 bd b7 68 dc 3d
       0.06393301 -0.0941892 -0.09582159 0.1076216
0003f0 4d 6f 09 bd a3 50 25 be 79 d4 7d bc 99 e1 1e 3e
       -0.03355341 -0.16144042 -0.015492552 0.15515746

onnx::MatMul_22 f4 [256, 256]
000000 17 5b 8b 3d 5b c9 48 be b8 fb aa 3d 13 fc 61 bd
       0.068044834 -0.19608061 0.08348793 -0.055172037
000010 5c b2 18 3e dc 31 0c be bc 31 fe 3c c1 83 fe be
       0.14911789 -0.13690895 0.031029575 -0.49709895
000020 4d d2 2f 3c e8 10 8a 3d 9c 28 07 3e 47 7f ee bd
       0.010731292 0.06741506 0.13199085 -0.1164537
000030 05 43 36 bd 53 8f 4f be 08 48 a3 bd d0 e4 08 be
       -0.04449751 -0.20269518 -0.07972723 -0.13368535
000040 b0 bb f9 3d c3 c3 ac be a6 7c ae 3d c9 07 31 be
       0.12194002 -0.33743104 0.085198686 -0.17288126
000050 e2 da 43 bc d8 f7 0a 3e 79 59 a1 be 31 fd ea bd
       -0.011954041 0.13571107 -0.31513575 -0.11474074
000060 ac ae bf bd ea 89 32 bf 4f 9d ed 3d e6 33 60 be
       -0.09359488 -0.6974169 0.1160227 -0.21894798
000070 49 9d 1e 3d ae 1e d6 be e7 f4 6c 3d d1 a2 66 3d
       0.038724218 -0.41820282 0.057850745 0.056307618
000080 b3 51 2b be 7c b5 51 be 0f 0a 4a 3d a3 e6 78 3c
       -0.16730385 -0.20479387 0.049326 0.015191707
000090 19 39 99 bd 5f 81 a9 bd 95 7e 00 bf c0 6b f5 3d
       -0.07481594 -0.08276629 -0.5019315 0.11983442
0000a0 65 ac b6 3d 89 c0 6d bd dc e1 1f 3e 15 80 63 3e
       0.089196004 -0.058044944 0.15613502 0.22216828
0000b0 f6 ff 82 3e cd 4f 81 be ee 1c 7d be ee 11 9b 3d
       0.25585908 -0.25256196 -0.24718067 0.07571779
0000c0 aa 63 47 3d c8 00 ba 3d 81 c3 0c be c9 66 e1 bc
       0.04867903 0.0908218 -0.13746454 -0.027514832
0000d0 74 7c cd 3d 31 87 d1 bd f6 0f 6e 3e a7 b5 83 3d
       0.10033503 -0.10230864 0.23248276 0.06431132
0000e0 e4 fd 38 be 90 82 05 3e 17 7d 01 be 24 07 b1 bb
       -0.18065602 0.13038087 -0.12645374 -0.0054024626
0000f0 df da 89 3e 6e e2 46 be 73 64 0a 3e f8 88 e3 3c
       0.26924798 -0.19422314 0.13514881 0.027775273
000100 eb 52 cf bd 79 31 75 3e 17 89 cf 3c 68 7a 8b be
       -0.10123237 0.23944654 0.025333924 -0.27241826
000110 95 fe e3 be 88 38 d6 bd b5 97 c7 3d e7 e5 79 bc
       -0.44530168 -0.10460001 0.09745733 -0.015252567
000120 f7 8a 8c 3e a4 f1 3b bf 7f 78 be 3d cb 62 6a 3e
       0.27449772 -0.7341559 0.093003266 0.22889249
000130 e8 9c d6 bd 3c 9f 07 3d 06 8d 8e 3d b6 7d 90 3d
       -0.10479146 0.033110842 0.06960492 0.070552275
000140 32 b3 bd 3c da 36 2b 3d 29 98 eb 3d 96 d8 15 3e
       0.023156736 0.041800357 0.115036316 0.14633402
000150 7f d8 c9 3d b6 5a a7 3d 9d d6 93 3e 06 19 5e 3d
       0.098557465 0.081715986 0.28874674 0.054223083
000160 6b 24 55 bd 08 b8 4f 3d 08 a1 3c 3d 5c 62 45 3e
       -0.052036684 0.050712615 0.04605201 0.19275802
000170 18 de a1 3d 28 32 78 be ad ba 5e bd b8 e2 3a bd
       0.07903689 -0.24237883 -0.054377247 -0.045626372
000180 cd b8 4a 3d 57 c2 19 bd 40 d1 aa 3d bc c0 0a 3e
       0.049492646 -0.037538853 0.083406925 0.13550085
000190 53 f5 f9 bd 1a 36 7c 3e 78 b2 0e be 9d d0 57 3c
       -0.12204995 0.24630013 -0.13935268 0.013172296
0001a0 b8 94 f0 3d cd 94 df 3d ef a4 a4 3b 66 ea 2f 3e
       0.11747116 0.10917053 0.0050245444 0.1717926
0001b0 fa 02 6a be c8 c3 b8 3d f2 58 35 bb 22 af a7 3d
       -0.22852698 0.09021717 -0.0027671424 0.08187701
0001c0 45 64 18 3e cb 57 8e 3d 01 0a dd 3d 5f 71 19 be
       0.14882 0.06950339 0.10792924 -0.14984654
0001d0 ce 5f 2d be 03 b8 39 be e5 1a 82 be 35 20 34 3d
       -0.16931078 -0.18136601 -0.25411144 0.043976028
0001e0 50 b5 d6 bd de 64 90 3d 3f de 2f 3e 9d 04 aa bd
       -0.10483801 0.07050489 0.17174624 -0.08301661
0001f0 a4 77 4b 3d 95 d2 0a be ae 64 b1 be 2b 98 5c 3d
       0.049674645 -0.13556893 -0.34647125 0.053856056
000200 3e 12 09 3b 86 b4 8d 3c 32 be 12 3e a1 f1 01 be
       0.0020915414 0.017297994 0.14330366 -0.1268983
000210 d0 27 02 be 1e ca 48 3d 4a a0 7d be 8c bb 95 bb
       -0.127105 0.04902088 -0.24768177 -0.0045694765
000220 50 50 c7 bd 88 45 fa bd 39 e0 93 be 2e 8a 65 3d
       -0.09732115 -0.12220293 -0.28882006 0.05603998
000230 43 c9 da 3d 6b 4f db 3e 4d 48 1b be c5 c7 b0 3d
       0.10682919 0.4283403 -0.151643 0.08631853
000240 00 7a 18 bd a0 cd 69 3e 44 04 5a 3c 4d d8 ad bd
       -0.037225723 0.22832346 0.013306681 -0.08488522
000250 d2 e7 d5 bd 4f 3e ea bd 3e 1d ab bd a4 4d 15 bf
       -0.10444607 -0.11437666 -0.08355187 -0.58321595
000260 97 90 93 3b 9e c4 4e bd 59 41 b6 bd 92 98 5f bd
       0.0045033204 -0.050480478 -0.08899183 -0.05458886
000270 f9 25 52 3d 20 4a 05 3d 9a 27 70 be 61 07 94 3e
       0.051305745 0.032541394 -0.23452607 0.2891188
000280 49 8e 05 be 4b 1c 17 be 6a bb 58 3d e3 65 87 3e
       -0.13042559 -0.14756887 0.052913107 0.2644492
000290 3b bc 1a be 49 2f 9d 3d e0 5e 88 be 78 13 0e bd
       -0.15110867 0.076750346 -0.26634884 -0.034686536
0002a0 e5 ee 80 bd bf 50 2e 3e 1d 44 58 3d 7c bb 29 3e
       -0.062955655 0.1702299 0.052799333 0.16575426
0002b0 72 62 dc 3d f0 42 c3 bc 7e 0f 43 be f4 b4 c5 3d
       0.107609645 -0.02383563 -0.19048879 0.09653655
0002c0 24 59 b0 3d 52 a3 f3 3d ce ff c3 3d 08 75 73 bd
       0.08610752 0.11896385 0.09570275 -0.05943778
0002d0 6a c7 8e 3e 77 2f 9f bd e0 ac e2 bc a7 64 25 3e
       0.27886516 -0.07772725 -0.027670324 0.16151677
0002e0 5b dc 88 bb 1e 35 ae bd 5f 4a 99 be 99 64 19 3d
       -0.004176659 -0.08506225 -0.29939553 0.037449453
0002f0 83 04 3a be 92 fb d1 be 4e 7d ac bd 84 42 90 bd
       -0.18165784 -0.41012245 -0.084223375 -0.07043937
000300 59 21 da bd 31 93 3b bb 69 9b 20 3e 0c 97 b7 3c
       -0.10650892 -0.0028621668 0.15684284 0.022410892
000310 6c 75 8a 3b 9b 8c d3 3c 6c 9b 27 be ec 84 93 bd
       0.0042254236 0.025823882 -0.16367882 -0.07203087
000320 21 ef cf 3d 7b 31 5e 3e d8 ee d8 bd 62 48 15 be
       0.10153032 0.21698563 -0.10592431 -0.14578393
000330 dd 89 aa 3c 87 71 93 bc 5b 87 e0 3d 0b 92 6b 3e
       0.020817691 -0.01799847 0.10963317 0.2300493
000340 7f 00 74 be 9b e9 f4 3d bf 27 93 3c de dc 09 be
       -0.23828314 0.11958619 0.017963288 -0.1346316
000350 f6 05 5b bf 49 15 24 3e 12 15 9c be da 43 ab ba
       -0.8555597 0.16023745 -0.30484825 -0.0013066486
000360 65 d1 05 3e 9f 48 1b 3e c9 0b 61 3d 3d 7c 54 3d
       0.13068159 0.15164421 0.05494288 0.051876295
000370 1d dc c1 bd 7f 57 21 3e 13 7f e4 3d b0 a1 7a 3c
       -0.094658114 0.15756033 0.1115705 0.015297338
000380 b3 5c ef 3d d2 1c 98 3d 2b b2 ee bd f4 11 9c bd
       0.11687603 0.07427372 -0.116550766 -0.07620612
000390 fe 90 2f 3e c0 2d fa 3d 98 cb 53 be 03 d7 70 3b
       0.17145154 0.12215757 -0.20683134 0.003674925
0003a0 f0 89 80 3d 33 62 6e 3d f8 24 f5 bd dc 81 d2 bb
       0.062763095 0.05819912 -0.11969942 -0.006424172
0003b0 23 78 f5 3d 3f 0f 3c bc a6 d8 7f 3d 05 25 01 bc
       0.11985805 -0.011478244 0.06246247 -0.007882361
0003c0 d8 ff f0 bd b1 3d 97 3c f7 8c 02 be 99 9e 35 bd
       -0.11767548 0.018462034 -0.12749086 -0.044340704
0003d0 27 40 43 3d 17 09 ef bc 08 e4 03 be 2e a8 a3 3d
       0.047668602 -0.029179139 -0.12879956 0.07991062
0003e0 21 81 b3 bd 2e 8f ed be a7 4a 87 bb 13 dc ea bd
       -0.08764864 -0.463983 -0.0041287723 -0.11467757
0003f0 5f f3 7f 3d 62 37 0a 3d cc 40 87 3d a1 17 34 bd
       0.062487956 0.033744223 0.06604156 -0.043967847

onnx::MatMul_23 f4 [256, 6]
000000 9f 6d 0a 3d 16 52 03 bf 0c c7 21 bf 40 08 b1 3c
       0.03379595 -0.5129713 -0.63194346 0.02161038
000010 ca 58 0a be 63 d9 0b bd 62 5d 7c bc 6d 14 0b 3f
       -0.13510433 -0.034142863 -0.015403124 0.5432804
000020 01 60 07 3d 89 bc a1 bc 3d a5 01 3d db ae 1d bd
       0.03305054 -0.01974322 0.031651724 -0.038496833
000030 6e 06 c5 bd 52 5d 03 3e 40 81 8f be c1 35 f4 bc
       -0.09620367 0.12828568 -0.28028297 -0.029810788
000040 b2 9f 73 3e fa 69 b4 3e 9a 8d 44 3e d0 60 cf bd
       0.23791388 0.35237104 0.19194642 -0.101258874
000050 b1 f3 f6 3d 24 17 4c 3e 5e f5 26 bd 5c da 81 bb
       0.12058199 0.19930702 -0.040761344 -0.003962798
000060 6d 62 60 3d 15 a7 de 3e 21 ae 08 bf 5c b0 91 bb
       0.054781366 0.43486848 -0.533907 -0.0044460725
000070 1e 03 50 3e 3d 1d 83 bd 5a c1 c3 3d d0 4b 68 be
       0.20313689 -0.06402061 0.09558363 -0.2268517
000080 0f fc 0f bf 40 b0 b1 bd 43 2c 97 bc 87 dc 9f 3b
       -0.56243986 -0.08676195 -0.018453723 0.004878584
000090 d7 67 b1 3d 4d 97 e9 bd 4d b4 ad bd 5e 99 be be
       0.08662384 -0.114058115 -0.08481655 -0.37226385
0000a0 27 4a 0f 3e 85 82 02 3f 76 94 13 3d 43 c6 d3 bd
       0.1399313 0.50980407 0.036030255 -0.1034055
0000b0 ad 26 a0 be 25 e8 09 bf 6c 70 2c be 4c 7d 99 be
       -0.31279507 -0.5386985 -0.1683976 -0.29978406
0000c0 97 87 18 3d 0f 3d 4b be fd 4a 37 be 75 66 27 3e
       0.037238684 -0.19847511 -0.178997 0.16347678
0000d0 85 3b 95 bd d9 d6 5a bd 3c b9 28 be fc 8b 0f 3d
       -0.07286743 -0.05342755 -0.16476911 0.03504561
0000e0 27 dd 54 3e 89 8f a4 be 4e 63 7f 3e 07 a0 cf bc
       0.20787488 -0.3214076 0.24940225 -0.025344862
0000f0 d5 59 5a 3d ef 9a 07 be 59 26 68 3c aa fc 00 3f
       0.053308327 -0.13242696 0.014169299 0.50385535
000100 40 2e 3c be 11 38 76 3b 89 65 a4 3d 7e a1 6f bd
       -0.18377018 0.003757004 0.08027179 -0.05850362
000110 ac 1b 8f 3d be 5a e4 3c 86 9a b4 bd 8f 80 22 3d
       0.069877 0.0278753 -0.088185355 0.039673384
000120 95 6b c1 3d 5b ea 68 3e f9 b0 86 3e 6a fd fb 3c
       0.09444348 0.2274565 0.26306894 0.030760486
000130 2b 43 39 3e 86 2c 5d 3e 8b 91 8f 3d 6d e8 04 3e
       0.18092029 0.21599016 0.07010182 0.12979288
000140 d8 4b 5a be 9f f1 99 be 91 dc 65 bd 16 ae 8c 3d
       -0.21317995 -0.30067155 -0.05611855 0.06869142
000150 5f ce ba bb e2 51 07 3f 37 9a 8b 3c 39 f9 24 3e
       -0.005700871 0.5285932 0.017041309 0.16110696
000160 f6 0e 07 3f fa 2b 52 3d b9 6e a2 ba 58 16 39 be
       0.52757204 0.05131147 -0.0012392617 -0.1807493
000170 18 26 0b bf e4 48 ad 3d 95 6c bd 3c 5d 00 08 be
       -0.54355 0.084611684 0.023123065 -0.13281389
000180 7d 6c 47 3d 71 be ea 3d 8f da 3c be f7 45 14 be
       0.048687447 0.11462105 -0.18442748 -0.14479814
000190 d2 1c 23 39 25 ec f0 3d 74 40 0d be 10 f0 d5 bd
       0.00015555628 0.11763791 -0.13794118 -0.10446179
0001a0 a9 20 ed bd f3 b1 c6 3e 6a 57 4e 3e b9 1d 5c be
       -0.11578495 0.3880764 0.20150533 -0.21495713
0001b0 5b fb 9f 3d 0d 15 bf 3e ac 55 b2 bd 5b 88 8c 3d
       0.07811614 0.37320748 -0.08707747 0.06861945
0001c0 d5 5d 58 3e 73 55 2b be c3 f8 a8 3c 63 6f 07 bd
       0.21129544 -0.16731815 0.020626431 -0.03306521
0001d0 1c d5 be be dc 17 08 bd f9 97 9a bd c6 03 42 bd
       -0.37271965 -0.03322588 -0.07548518 -0.04736688
0001e0 73 c1 ea bd 0d b3 e1 bd 16 4d 5e 3e bc bc 5b 3e
       -0.11462679 -0.11020479 0.21709093 0.21458715
0001f0 fa 8b 27 be 08 bd c3 3d aa 5a 9d bd be 89 3a be
       -0.1636199 0.09557539 -0.076833084 -0.18216607
000200 e4 bf 4b bd f3 38 a0 bb de a6 51 3d 3a 2f d4 3e
       -0.049743548 -0.0048896014 0.051184528 0.4144228
000210 e4 4d e5 3d 48 65 65 be 8a f7 a1 be 0c e4 fa 3d
       0.11196497 -0.22401917 -0.3163417 0.12250528
000220 ac 51 4b be 98 59 4a 3b c8 3a cb 3d e7 25 a1 3e
       -0.19855374 0.0030876156 0.09923321 0.3147423
000230 82 ad 3d be d7 b6 3e bb e6 96 30 be 12 48 78 bd
       -0.18523219 -0.002910068 -0.17245063 -0.060615607
000240 ca d1 c0 bd 89 57 1b be 82 19 d4 3d 90 f0 fe bd
       -0.09415014 -0.15170111 0.10356428 -0.124482274
000250 12 ad 4a be 6c e3 4d bd ce 1f 21 3e 14 87 4f be
       -0.19792584 -0.050265715 0.15734789 -0.20266372
000260 52 fc a2 3e 3b 87 a8 3d d0 ea 0c be 64 24 fe bd
       0.3183313 0.08228918 -0.13761449 -0.12409285
000270 27 73 00 bd bb c9 c0 be c0 2b 35 3e db cf 09 be
       -0.031359818 -0.37653908 0.1769247 -0.13458197
000280 e8 88 3e be bf dd 25 be ef 6c 24 be 72 1b 45 3c
       -0.18606913 -0.1619787 -0.1605718 0.012030469
000290 7a 11 91 3c 35 22 6b 3d 5d 2d f7 bc 70 52 50 be
       0.017708529 0.05740567 -0.030172998 -0.20343947
0002a0 f3 d0 8e bd a7 bd 7b 3e 4c bb 94 3e 6b 86 82 3e
       -0.06973448 0.24584065 0.29049146 0.25493178
0002b0 ae 05 65 3d 80 61 8e 3d 2f dc 03 bd 18 16 b2 3d
       0.05591362 0.069521904 -0.032192405 0.0869562
0002c0 b1 17 8d be 5e f2 ac bc 73 49 13 3f 71 33 3e 3d
       -0.27557138 -0.021111663 0.5753395 0.046435777
0002d0 f8 68 24 be 0f c7 1c be d5 8f 94 3d e0 60 80 3d
       -0.16055667 -0.1531031 0.07253996 0.062684774
0002e0 f7 f2 67 3e 55 44 91 bb d5 71 19 be b3 d2 89 3d
       0.22651277 -0.0044331946 -0.1498483 0.06729641
0002f0 d9 e5 4f 3e 83 f5 9e bd b5 8b 91 3e 9d 36 30 be
       0.20302524 -0.077616714 0.284269 -0.17208333
000300 ad 0c 8c 3c 26 88 58 be 5b 31 b6 be 87 cb ad be
       0.017095888 -0.21145687 -0.3558453 -0.33944342
000310 66 10 79 be 47 b9 67 3d 47 27 27 bd 37 94 46 bd
       -0.24322662 0.05657318 -0.040808942 -0.048481192
000320 7f a7 93 be 19 9a e9 3e 5f b2 3f 3e 99 18 b1 3e
       -0.28838727 0.4562538 0.18720387 0.3458908
000330 e0 1c d3 3e f8 92 d5 3e 0e 7a 74 be 74 22 67 3e
       0.41232967 0.4171369 -0.23874685 0.22571737
000340 c3 9b ba be a0 9b c1 3d 0c c5 43 bd 76 9b df bd
       -0.36446962 0.09453511 -0.04779534 -0.10918324
000350 86 c9 f5 3c cb 97 ac be 5c 0d ff bc b1 ff db be
       0.03000332 -0.3370956 -0.0311343 -0.42968515
000360 6f d9 79 be fd 02 dc be 3a 85 a4 3e ec 5b 8e be
       -0.2439935 -0.4297103 0.32132894 -0.27804506
000370 a3 99 7d 3e 3b 9d 84 be af 35 23 3d 23 9d 63 3e
       0.24765639 -0.25901207 0.03984612 0.22227912
000380 bd 4d dd bd f1 a9 25 3d e1 8c 9e 3d 57 f9 86 be
       -0.10805843 0.040445272 0.07741714 -0.26362106
000390 17 9f c8 bc 81 33 ec 3e 3e d7 19 3e 55 96 ca 3c
       -0.024489922 0.46133044 0.15023515 0.024729887
0003a0 41 00 22 be b8 18 4b be 2e ac b2 bc d3 da a6 be
       -0.1582041 -0.19833648 -0.021810617 -0.32588825
0003b0 b6 9e 24 3e 4c 98 cb bd 55 ea 85 3e 38 ad af ba
       0.16076168 -0.09941158 0.26155344 -0.0013403064
0003c0 fd 39 6c 3d 11 83 14 3d d7 2a a4 be f4 78 af bd
       0.05767249 0.036257807 -0.32063934 -0.08567992
0003d0 31 a5 31 be bf 6c 06 3d 98 2b b6 3d 1d 46 86 3c
       -0.17348172 0.032818552 0.088950336 0.016390854
0003e0 bc 27 84 bd 52 fc a4 3e 1c 10 0d 3e cf 47 e0 3e
       -0.06452891 0.32223755 0.13775676 0.43804786
0003f0 f9 db d9 bc f9 7f d4 3e 00 19 d0 3d ab 54 9b bc
       -0.026594149 0.41503885 0.10161018 -0.018961271
