policy.onnx (onnx, 311231 bytes, 6 tensors)

_lyrs.0.bias f4 [256]
000000 d2 c9 87 bd 7e 6a 34 3d 69 db 19 3d d7 60 7e 3d
       -0.06630291 0.04404687 0.03756276 0.062104072
000010 3f 96 09 3e 05 a8 31 3d 69 b3 5c bd 27 33 19 bd
       0.1343622 0.043373127 -0.053882036 -0.0374023
000020 60 53 01 be 8f 71 c8 bd 3d b4 93 3d 1d d1 3c be
       -0.12629461 -0.097872846 0.07212112 -0.18439145
000030 0d d1 09 bd a3 88 0e 3e 36 8d d6 3d 38 e6 b4 3d
       -0.033646632 0.1391931 0.104761526 0.08832973
000040 f5 c0 4f 3d 02 4b ae 3c 9b 59 b4 bd 21 98 06 3e
       0.050721128 0.021276 -0.088061534 0.1314397
000050 0a 6b b9 3d b4 fe 71 bc f6 84 c8 3c 82 b7 18 be
       0.09053619 -0.014770199 0.024477463 -0.14913753
000060 c2 1c 39 bd 2c e4 b4 3d 22 95 de bc cf 53 da 3d
       -0.04519344 0.08832583 -0.027170721 0.106605165
000070 19 9d 35 3d 58 fa ae 3c 8f 0d ab bd 82 7b e5 bd
       0.044339273 0.021359608 -0.083521955 -0.11205198
000080 a4 29 92 3c ae 10 9c bd b4 16 86 3d f5 03 ed bb
       0.017842121 -0.07620369 0.06547299 -0.0072331377
000090 51 c7 2b be 32 29 e6 3c 79 3d d2 3b 52 df 2e be
       -0.16775252 0.028095815 0.0064160195 -0.17077377
0000a0 3e e9 de 3d 96 aa 3b be c8 07 9f 3d 8a 44 30 3e
       0.10884331 -0.18326792 0.07765156 0.17213646
0000b0 99 3a 14 3e 0d 17 b2 bd 09 cc cf bc 84 91 f3 3d
       0.14475478 -0.08695803 -0.025365846 0.11892989
0000c0 89 48 d4 3a b6 b7 26 be 1d ed a1 3d a1 11 c0 3c
       0.0016195934 -0.16281018 0.07906554 0.023445906
0000d0 1d 96 39 3e a7 cc ed bc 84 5b dc bc 85 ef e4 bd
       0.1812367 -0.02902825 -0.026899107 -0.11178497
0000e0 98 1c fc bd 92 a2 be 3c 1a 4b ac bd 78 43 d5 3c
       -0.12310141 0.023270879 -0.08412762 0.026033148
0000f0 80 ea 03 bd 06 ff a1 bd 2e 81 d5 bc 00 1f 10 be
       -0.03220606 -0.0790997 -0.026062574 -0.14074326
000100 5d 8d 68 be a6 7a 8e bd 51 62 95 be 8a 2c 75 bd
       -0.22710176 -0.06956987 -0.29176572 -0.05985693
000110 32 9d a7 3d c9 17 40 3d 40 1b 37 bd 1e d6 3a bd
       0.081842795 0.046897683 -0.044703722 -0.045614354
000120 fc 3d 81 bd 93 cc 4a 3e d2 0a 61 be 94 ad 5c bd
       -0.06310651 0.19804601 -0.21976784 -0.053876474
000130 b0 e0 19 be 94 01 43 3d c2 30 17 3e da f0 08 3e
       -0.15027118 0.047608927 0.14764693 0.13373128
000140 da 32 6a be 8d ac 68 bd df 08 ab bd 52 36 d5 3d
       -0.22870961 -0.056805182 -0.083513014 0.104107514
000150 9a 3a 88 be dc f3 c9 3d 18 5a 4f be 92 08 98 3d
       -0.2660721 0.098609656 -0.20249212 0.0742351
000160 30 2c ec bd f5 2c 81 be bd ba 31 bd 43 c3 a8 3c
       -0.115318656 -0.25229612 -0.043390978 0.02060092
000170 8b b9 54 be ff 91 81 3d bc d8 ff bd 31 2f a3 3d
       -0.20773904 0.06326675 -0.12492511 0.079679854
000180 77 7a ed bd 83 ef 62 3d 38 ad f2 3d da 42 81 bc
       -0.11595624 0.055404197 0.11849445 -0.015778948
000190 5c 99 09 be 81 3c c7 bd 5c bb 9b bd 05 23 27 3d
       -0.13437408 -0.09728337 -0.07604095 0.04080488
0001a0 99 99 cd bd 5f cd aa bd 2a 97 30 3e ee a7 90 be
       -0.10039062 -0.08339953 0.17245165 -0.2825312
0001b0 c9 39 d1 3c 67 9c 6a 3d f5 9b 9d 3d 0b 65 23 be
       0.02554025 0.057278063 0.07695762 -0.15956514
0001c0 55 3b 8c 3d 6c 40 b5 bd 68 f5 83 bc 3c 31 e2 bd
       0.06847254 -0.08850178 -0.01610823 -0.11044547
0001d0 df de 23 be 9d 96 37 3d f0 f2 88 bd a6 3a 1c 3c
       -0.16002987 0.04482137 -0.06686962 0.009535467
0001e0 39 12 45 be ef d4 d2 3c ec 0b a9 bd ce b9 5d be
       -0.19245233 0.0257363 -0.08254227 -0.2165291
0001f0 e3 08 9c be d4 d6 a1 bd 96 68 51 bd 1e 5f 9f 3d
       -0.3047553 -0.07902303 -0.05112513 0.07781814
000200 78 66 b5 3d 3b 75 35 be 1e 33 92 bc 2f a2 ba bd
       0.08857435 -0.17720501 -0.01784664 -0.09112965
000210 56 8d 06 3e af 3c 16 be c4 7f 0c 3e 34 07 19 bd
       0.13139853 -0.14671586 0.13720614 -0.037360385
000220 f1 0c b7 bd d0 a6 a4 3c 79 16 63 be 91 2a f1 3d
       -0.08938015 0.020099074 -0.22176541 0.11775697
000230 2d 95 ef bc cd bc dc bd fd 1c 01 bd 12 d6 1c 3c
       -0.029245937 -0.107781984 -0.031521786 0.009572523
000240 e8 68 9b bd 07 15 39 3d c4 8a e1 bc 3d e8 ad bd
       -0.07588369 0.04518607 -0.027531989 -0.084915616
000250 90 15 b7 3d 03 65 a5 bd 6b f8 11 3d 78 18 86 be
       0.089396596 -0.08075907 0.0356373 -0.26190543
000260 a8 86 14 be 01 0b fa bd 34 bd 01 be 03 6f f9 bd
       -0.14504492 -0.1220913 -0.12669832 -0.12179377
000270 16 7a 0e be 66 26 b5 bc 55 a0 06 be 9c c1 da bd
       -0.1391376 -0.022113036 -0.131471 -0.10681459
000280 28 48 7c be 47 19 b2 ba c7 51 6a be 7e bb 09 be
       -0.246369 -0.0013587856 -0.22882758 -0.13450429
000290 bb 33 94 bd 8f d3 da bd 17 ff dd bd d9 d8 2c 3e
       -0.07236429 -0.10684883 -0.1083967 0.16879596
0002a0 ac f0 96 3c d3 d8 6a be 73 62 3e be 58 85 50 3d
       0.018425308 -0.22934274 -0.18592243 0.050908417
0002b0 37 24 b8 bd 98 64 3a 3d 56 48 93 3d 5d 90 14 be
       -0.089912824 0.04550609 0.07191531 -0.14508195
0002c0 de b9 8f bd 20 e5 7b 3c 7e b2 3b bd 38 7c 20 be
       -0.07017873 0.015374452 -0.04582452 -0.15672386
0002d0 4e 8b 9a bb c1 de 48 bd 6c 4b 62 be 11 40 88 3d
       -0.0047163134 -0.04904056 -0.22099084 0.06652845
0002e0 06 fd 6e be f0 fe 4c bd f3 a2 f6 bd 42 9d 0a 3e
       -0.23338708 -0.050047815 -0.12042799 0.13536552
0002f0 b4 7b 8e bc 75 dd 8c bd a3 9e 3f 3d 54 1b 3d 3d
       -0.01739297 -0.06878177 0.046782147 0.04616864
000300 7f 90 df bd 48 ee ec 3d 21 30 1a be cd 9a f0 bd
       -0.10916232 0.11568886 -0.15057422 -0.11748276
000310 ec 39 6b be 81 54 ef bb cc 20 ad bd 8e d2 6c bd
       -0.22971314 -0.007303775 -0.08453521 -0.057817988
000320 27 de 0c be 39 64 0b be a7 bd b4 bd 21 ea 24 bd
       -0.1375662 -0.1361245 -0.08825236 -0.040262345
000330 76 04 f5 bd 5a 72 1b be f4 28 b8 bd f7 d6 f0 3d
       -0.119637415 -0.1518034 -0.08992186 0.11759751
000340 20 76 b7 bd 25 de 34 bd 99 9f 87 3d c6 dc 0b 3e
       -0.089580774 -0.044157166 0.06622238 0.13658437
000350 be a2 11 3e 21 37 1d 3d 1f ad c8 3d d6 9a 50 be
       0.14222237 0.038382653 0.09798645 -0.20371565
000360 b5 20 65 bc 20 3c 85 bb 27 db f8 bc 7e 35 72 bd
       -0.013984849 -0.0040660053 -0.030377937 -0.059133045
000370 b4 13 79 3d aa ab c0 3c 2d 5c 24 3e 0e e6 3b be
       0.060809806 0.023519356 0.16050787 -0.18349478
000380 c7 dd 8d bd 13 bb a7 bd 74 20 5d 3d 70 57 66 be
       -0.06927066 -0.081899785 0.053986028 -0.22494292
000390 f5 af 0c bd 9e 2a fc bd b3 25 c9 bc b3 dd 28 be
       -0.034347493 -0.12312816 -0.02455411 -0.16490822
0003a0 7d 02 28 3d c0 1a 50 bd 75 5f 68 be ad 7f 16 3e
       0.041017998 -0.05080676 -0.22692664 0.14697142
0003b0 c8 77 68 3d c3 1a 85 be 28 4e cf 3d ea ba ec 3d
       0.056754857 -0.2599698 0.10122329 0.115590885
0003c0 b0 85 01 bd b1 c7 74 3e e3 1d 2a bd 14 5c ff 3d
       -0.031621635 0.23904301 -0.04153241 0.124687344
0003d0 d2 af c3 bd 4a b6 20 bd 04 db 83 be 11 55 08 3e
       -0.095550194 -0.039236344 -0.25753033 0.133137
0003e0 48 50 1e 3e 1b a7 16 be f3 f1 a9 bd ef 91 16 3e
       0.15460312 -0.14712183 -0.08298101 0.14704107
0003f0 1c 14 28 bc 66 aa 01 be e0 23 1b bd 01 7e 18 be
       -0.010258701 -0.12662658 -0.03787601 -0.14891817

_lyrs.1.bias f4 [256]
000000 48 ae 76 be 81 61 ac 3c 80 a7 6f be 9c 95 71 3d
       -0.2408992 0.021042587 -0.2340374 0.05898057
000010 7a 39 38 be 01 d3 b0 bd be e4 3d bd 49 a8 9d 3d
       -0.17990676 -0.08633996 -0.046360724 0.076981135
000020 57 15 8c bd 4e 7a 26 3d ad af 4b be 30 07 8f 3e
       -0.06840008 0.040643983 -0.19891234 0.2793517
000030 9e db ed bd 3b df 3f bd 8f d2 a2 bd f2 63 b9 ba
       -0.11614154 -0.04684375 -0.07950317 -0.0014144166
000040 1b d2 7f be b9 07 7e 3e 8f 5a 53 be 06 7a 6f 3d
       -0.24982493 0.24807633 -0.20640014 0.05846598
000050 2b 1c 3f 3e fe 19 04 be 12 a8 c1 3d 75 3f 28 3e
       0.18663089 -0.1290054 0.09455885 0.16430457
000060 d1 bd 78 3e 66 48 e7 3d 9e 82 9f bd 16 d2 cb bb
       0.24291159 0.11293106 -0.07788585 -0.0062201126
000070 16 ec a3 3e 40 21 cf bd 08 0a aa bd b9 1d f3 3d
       0.32016057 -0.10113764 -0.083026946 0.118709035
000080 73 9c a9 bd df 81 45 bc e4 81 34 3d 9e fc 19 be
       -0.082817934 -0.012054889 0.044069186 -0.15037772
000090 af d3 b0 bd c8 44 8f 3d 0f 44 b1 bb 9c 2a a5 3d
       -0.086341254 0.06995541 -0.0054097245 0.08064768
0000a0 cf 8c 78 3d 0f d9 bd 3d c2 b0 06 3d 2d 4c cb 3d
       0.06068116 0.09269916 0.032883413 0.09926639
0000b0 4b 8f d6 bc 55 c2 2d bc 34 85 0d 3e e8 75 84 bd
       -0.026191374 -0.010605414 0.13820344 -0.06467801
0000c0 dc c9 c8 3d 52 5c 1c 3b 23 be 6d 3e 82 9b f5 bd
       0.098041266 0.0023858738 0.23217063 -0.119925514
0000d0 af ef 0a 3d 2f cd 8e 3e fe c3 da bd f1 49 2d be
       0.033919986 0.27890918 -0.10681914 -0.16922738
0000e0 c3 b8 b5 bd 93 8e aa bd 41 e3 cd bc fb 0a b3 bd
       -0.08873131 -0.08327975 -0.025132777 -0.08742329
0000f0 21 47 88 bc cd b4 62 3d 88 e8 92 3c 81 e8 4b 3e
       -0.01663548 0.055348206 0.017933145 0.19912912
000100 ec 24 83 bd 8c 7f 6a 3d f4 51 8a 3d 43 e5 23 bd
       -0.06403527 0.057250544 0.067539126 -0.040013563
000110 f8 6e fc 3d 3b 76 15 3b b3 58 34 3e 77 1c 08 3e
       0.12325853 0.0022806067 0.17611961 0.13292108
000120 9c 15 b8 bc b3 92 63 bd 0b 0e f1 3d 5b 31 c0 3c
       -0.022471242 -0.055559825 0.117702566 0.023461035
000130 8d 59 82 be 5c d3 14 3e 0e 38 88 bd d8 3b 1d 3d
       -0.25458947 0.14533752 -0.066513166 0.03838715
000140 05 ee cc 3d fa e5 85 3c c0 d2 9a 3d 53 8e 00 be
       0.10006336 0.016345013 0.075597286 -0.12554292
000150 77 cd 06 3d e9 08 e2 3d 22 5c 3d be d2 e1 2b 3d
       0.03291079 0.11036856 -0.18492177 0.041963406
000160 b6 7d 75 be 77 e7 e2 3c e0 b5 02 3c 20 4d bd bd
       -0.23973736 0.027698262 0.007977933 -0.09243226
000170 44 0e bb 3e 76 9c b7 bd 41 20 78 3d f7 b9 c6 bd
       0.3653432 -0.089653894 0.060577635 -0.09703439
000180 93 6f c8 bd 5c c4 00 be fc 0f f9 3b 68 c3 1f 3d
       -0.09786906 -0.12574905 0.0076007824 0.039004713
000190 49 fe 31 3e 49 6e 77 3d e9 3b 4c bd c0 f9 15 3e
       0.17382158 0.06040791 -0.049861822 0.14646053
0001a0 49 3f e7 bc 3a 0d 2f 3c 19 8c 7e bd 63 b3 5d 3d
       -0.028228419 0.010684306 -0.062145326 0.054126155
0001b0 f5 74 98 bd 8a df 28 3e 8f d2 98 bd c3 36 86 bd
       -0.07444183 0.16491523 -0.07462036 -0.06553414
0001c0 fa 09 4c 3e ab 28 af bd 4e c1 ef bd 6d f4 86 bd
       0.19925681 -0.08552679 -0.11706792 -0.06589589
0001d0 14 f5 79 bd b4 ea 17 bd 20 7f 48 3c d6 ce 80 b8
       -0.06102474 -0.037089065 0.01223734 -6.142042e-05
0001e0 ce 69 39 3d f3 0e 2f be fa bf d5 bc 61 cc db bd
       0.04526692 -0.17095546 -0.026092518 -0.107323416
0001f0 f2 41 ee 3d b9 bf 40 be 32 8a 72 bd ab b0 13 3e
       0.11633672 -0.18823136 -0.059213825 0.14422862
000200 06 f0 aa 3e 15 b4 12 bd 5d 10 2f 3d c7 0d c5 bd
       0.33386248 -0.03581627 0.042740215 -0.096217684
000210 d0 59 bb bd df ee ba 3d 8d 01 a4 3d 9e 56 b2 3d
       -0.0914799 0.09127592 0.08008108 0.08707927
000220 41 58 2a be 08 51 50 be 7f 40 98 3d e4 35 42 be
       -0.16635229 -0.20343411 0.07434177 -0.1896587
000230 71 e2 3e 3d 0f d4 3b be d9 81 e8 3e b9 37 9e bd
       0.04660267 -0.18342613 0.45411566 -0.07725472
000240 e5 59 05 3d 97 4e a8 bc 96 a7 52 3e f0 96 5f be
       0.032556433 -0.020545287 0.20571741 -0.21834922
000250 51 e6 d0 3a 78 8d c7 bd 3c fd bf 3c cc a1 e5 38
       0.001593778 -0.0974378 0.023436181 0.00010949708
000260 a8 3c a6 3d a0 a2 ed 3d fc 67 fe 3c 9f b7 05 be
       0.08117038 0.11603284 0.031055443 -0.13058327
000270 38 72 75 3e 42 db 8b be e0 98 d6 3c 0c 4d a0 3d
       0.23969352 -0.27315718 0.026195943 0.078271955
000280 41 f1 bc 3d 03 fb 3d 3e a3 b3 31 3e 5c f2 80 3d
       0.09225703 0.18552785 0.17353682 0.062962264
000290 43 da a1 3b 65 5b 0f 3e 4e d4 95 bd 73 15 72 3d
       0.004939349 0.13999708 -0.073158845 0.059102487
0002a0 7a 29 30 bb 91 c1 bf 3c b1 45 e1 3d 22 e7 1b be
       -0.002688019 0.02340773 0.10999621 -0.15224889
0002b0 71 b7 19 3c 0b 7c 98 3d 48 d8 73 bd 40 8e 8d 3e
       0.009382115 0.07445534 -0.059532434 0.2764759
0002c0 db 11 a9 3d 1f 4a 8d bd d6 0b 12 3b 1e 47 71 bd
       0.08255359 -0.06898903 0.0022284887 -0.058905713
0002d0 74 26 5f bd 08 d0 a0 bd 1f 07 2f 3b e5 f1 ae bb
       -0.05448003 -0.07852179 0.0026707125 -0.0053388947
0002e0 cc 47 6c 3e e0 48 44 3e ea cc f5 bd b1 cb 69 3c
       0.23074263 0.19168425 -0.12001975 0.014269755
0002f0 a6 9d a8 bd e9 f5 21 be 0a 01 2a 3e 9d 7f 0d bd
       -0.08233194 -0.15816464 0.16601959 -0.03454553
000300 3d 4e bb 3c c7 37 8a be 14 10 ef 3d 88 34 cc 3d
       0.022864455 -0.2699568 0.116729885 0.09970957
000310 64 50 9b bd a3 b0 af 3b 44 2f 26 bc b3 b2 c8 ba
       -0.07583693 0.005361633 -0.010143105 -0.0015312046
000320 e0 7c 5e be f9 ce 12 be 8a 89 1e be e5 cd 4b 3e
       -0.21727324 -0.14336766 -0.15482154 0.19902761
000330 fe 21 96 bd 1d 50 79 bd 3a b8 39 3c 9e b9 56 bd
       -0.07330702 -0.060867418 0.011335427 -0.052423112
000340 43 02 af 3b 6c e7 ae bd 77 14 f1 3d ec 8f 8d 3c
       0.005340846 -0.08540234 0.117714815 0.017280541
000350 3a 5f 55 3d 5a c7 78 3e fc 20 2b bd f3 9f 03 3e
       0.05209277 0.24294797 -0.041779503 0.12853985
000360 c0 ec 9c bd af 99 01 3d 7b ec e5 bd bd 60 c3 3d
       -0.07662344 0.031640705 -0.11226746 0.09539936
000370 5c 84 ac 3b 72 e3 53 bd d3 13 55 3c 0b c4 40 be
       0.005264802 -0.05173058 0.013005215 -0.18824784
000380 67 4f c6 3e 4b f7 d4 bd f5 24 23 3e 57 47 12 3e
       0.38732454 -0.1039873 0.15932067 0.14285026
000390 0d ae 42 bd 7a 60 43 be be 39 b6 3b aa ee 3a bc
       -0.04752927 -0.19079772 0.0055610826 -0.011409441
0003a0 5e c4 0f be df bb 12 3e 9f 76 36 bd aa 76 64 3e
       -0.14039752 0.1432948 -0.04454672 0.22310892
0003b0 da 38 8c 3d 12 d6 10 bd 8b 38 29 bd 29 4b c8 3c
       0.06846781 -0.035360403 -0.04131369 0.024449902
0003c0 19 8e 9a bd 81 82 86 bc 32 cf 44 be 68 1f b0 3d
       -0.07546634 -0.016419651 -0.19219664 0.0859974
0003d0 5c 9f 4d bd 0b 75 da bd 5c 4e ba 3d 70 47 3f 3e
       -0.050200805 -0.106668554 0.09096977 0.18679595
0003e0 a1 c1 07 bd f9 d0 89 3d a2 ed 39 3e 96 02 8e bd
       -0.033143643 0.067293115 0.18157056 -0.06934087
0003f0 80 f6 fe 3d 21 f5 2b 3c ea e4 0c 3e 32 4b 20 3e
       0.1244936 0.010495455 0.13759199 0.15653685

_mean_lyr.bias f4 [6]
000000 a5 b9 09 3d 3e 81 6e 3c df c5 f0 bc 78 13 6d 3d
       0.03362431 0.014557181 -0.029391227 0.057879895
000010 9e 69 ca 3d 04 b0 b0 bb
       0.09883426 -0.0053920764

onnx::MatMul_21 f4 [39, 256]
000000 63 bf a0 bd a2 b7 d7 3d 6c 33 84 3c 96 b5 8a bd
       -0.07849004 0.10533072 0.016137801 -0.06772916
000010 76 48 5c be 84 17 37 bd 31 33 e5 3c ca 71 4e be
       -0.21512017 -0.04470016 0.027978512 -0.20160595
000020 09 3b 81 3e e2 9b b6 bd 15 84 3b 3d e9 42 72 bc
       0.25240353 -0.08916451 0.04578026 -0.01478646
000030 09 7b 43 3d 53 d1 1e bc 0a 68 10 3d 55 63 08 be
       0.047724757 -0.0096934615 0.03525547 -0.13319142
000040 eb 52 db bd 1f c8 4b be 70 aa eb 3d 1b ee da 3b
       -0.10709175 -0.19900559 0.11507118 0.0066812164
000050 a5 2b 36 3e 48 e9 23 be 11 e5 0b 3e 20 75 46 3d
       0.17790087 -0.16006958 0.136616 0.048451543
000060 b1 c9 4b be bd ff cc bd a0 6d ce 3d 4c 67 ae bd
       -0.19901158 -0.10009716 0.10079503 -0.08515796
000070 af ea b5 3d f7 33 71 bd f9 39 c7 bd 76 89 fe bc
       0.08882653 -0.05888745 -0.09727854 -0.031071406
000080 8c 40 ae be 63 7a 9e bc 2c 8c 1e b9 62 08 1a 3e
       -0.3403362 -0.019345468 -0.00015120272 0.1504226
000090 fd 56 52 be f5 c0 c9 be 1a d6 45 3d 1d 43 85 3d
       -0.20540996 -0.39405027 0.048299886 0.065069415
0000a0 f3 45 8d 3b 77 70 5a 3e 2e 18 51 be ca 93 3a bd
       0.004311317 0.21331964 -0.2041938 -0.0455511
0000b0 01 10 6a bd 44 77 05 3e a8 93 a5 bd 20 5f ec 3d
       -0.05714417 0.13033777 -0.08084804 0.11541581
0000c0 3d e9 b0 bd 8c b9 e7 bc 76 b2 b0 3c cb bb 37 3d
       -0.08638237 -0.028286718 0.021569472 0.044856828
0000d0 1e 62 46 bd 2b 7a 41 3e 33 df 06 bd e3 db 19 be
       -0.048433416 0.1889426 -0.032927703 -0.15025286
0000e0 f2 be eb bd b6 1a 1e be cb 83 88 bd f3 5b 29 3e
       -0.11511029 -0.15439877 -0.066657625 0.16538982
0000f0 40 f4 8d bb 64 8a 26 3e fc 02 43 3e a9 b4 1b bb
       -0.0043320954 0.1626373 0.19044107 -0.0023758805
000100 97 48 47 3d 9d a6 7b bb 47 f8 09 3e 5d a7 24 bd
       0.04865321 -0.003839887 0.13473617 -0.040198673
000110 9a 9b 09 bb dd 69 2e bd 04 bb 0c be bc 77 99 3c
       -0.0020997287 -0.042581428 -0.13743216 0.018733852
000120 a2 e3 bc bd eb d3 d6 bd 4a f8 31 3d 29 35 4b 3d
       -0.09223105 -0.10489639 0.043449678 0.049611244
000130 a4 bc ed 3b b9 53 93 3d 74 05 88 3e 9b 30 cb bd
       0.0072551537 0.07193703 0.2656666 -0.0992138
000140 2c b4 e4 be 50 f7 ca bd 2e d8 4a bd cf af 48 3e
       -0.4466871 -0.09910452 -0.04952257 0.19598316
000150 44 ae fa 3d 17 85 d0 bd b3 ef ce bd 11 91 db bd
       0.1224027 -0.10181635 -0.10104313 -0.107210286
000160 41 69 93 3e 83 d0 75 bd 3c c6 ac bd 7f b0 c7 be
       0.2879124 -0.060013305 -0.08436248 -0.39001843
000170 da 81 23 3c 6a f2 49 3e 87 86 94 3d 3d 0c 98 be
       0.0099796895 0.1972138 0.072522216 -0.29696837
000180 1e b2 e3 ba c4 05 d5 3d 3a 7e c7 be 97 01 04 3e
       -0.0017371809 0.1040149 -0.3896349 0.12891231
000190 70 a0 c3 bd 44 89 4b 3e 94 03 e1 3d 85 46 d1 be
       -0.095520854 0.19876581 0.109870106 -0.40874115
0001a0 3f 15 8b 3e 5c 67 2f bd 78 bb 47 3d 71 94 fd bd
       0.27164647 -0.04282318 0.04876277 -0.123818286
0001b0 c4 76 a9 bd 84 db 32 b9 a6 de f8 3d 11 80 8f bd
       -0.08274606 -0.00017057179 0.12151842 -0.070068486
0001c0 6a de 3c 3e 5a 81 43 3e 6a 1f 20 3e 81 4c 2c be
       0.18444219 0.19092312 0.15636984 -0.16826059
0001d0 ab 9e 69 bd 5c 55 1b be a7 88 41 bd 9f f1 df bd
       -0.057036083 -0.15169281 -0.047249462 -0.109347574
0001e0 25 35 06 be 2b 3c f0 bd 12 c7 62 3c c6 a3 25 be
       -0.1310621 -0.11730226 0.013841407 -0.16175756
0001f0 62 4f d5 bd 7e bd 1a be 3a 6d 17 be 99 ad 97 3d
       -0.10415532 -0.15111348 -0.1478776 0.07406158
000200 c4 54 67 be 8b fc db bd a0 d2 cc 3d b6 b3 82 bd
       -0.2259093 -0.10741528 0.10001111 -0.063819334
000210 f3 a9 80 bd 12 dc 17 3e e7 2f d4 be d9 d9 29 be
       -0.06282415 0.14830044 -0.41442797 -0.16587009
000220 ef 18 49 3e 66 4e 48 3e d6 6a a1 bd 1f fa db bd
       0.19638418 0.19561157 -0.078817055 -0.10741066
000230 1b fa 89 3d a0 56 4b 3d 00 e5 d0 3d 2b f2 65 3d
       0.06737157 0.04964316 0.10199928 0.056139152
000240 03 a0 11 be fc b4 63 3e 6e eb 8d bd bd 2e 67 bd
       -0.14221196 0.22237009 -0.0692967 -0.056441057
000250 b0 16 05 3e e1 8d 14 3e 6c 22 87 3d e4 45 84 3d
       0.12996936 0.14507248 0.06598362 0.06458643
000260 00 04 84 be d7 e4 2f be 0b 02 ab 3c 90 87 63 3d
       -0.25784302 -0.17177139 0.020874998 0.055549204
000270 b7 24 9b bd f6 8b bd 3d 78 ce b2 3c cf 34 64 3d
       -0.07575362 0.09255211 0.021826968 0.055714425
000280 f6 26 50 3e 9d 52 4f 3e da ea c4 bd cf 2d b9 bd
       0.20327362 0.20246358 -0.09615107 -0.090419404
000290 fd 6d cb bc 85 56 0e be be eb eb bd 20 ee c8 3d
       -0.02483272 -0.13900192 -0.11519574 0.09811044
0002a0 a0 c7 bf bd 47 ab ce 3d 8c 2a ae 3d 0d 4b 87 be
       -0.09364247 0.10091262 0.08504209 -0.26424447
0002b0 d6 f8 dc 3b 07 ac 7c 3d dd 12 8c 3d 94 4f 17 be
       0.0067435307 0.061687496 0.068395354 -0.1477645
0002c0 d5 ad be bd b6 81 a8 3c 78 15 19 3e 49 9d 00 3a
       -0.093104996 0.020569663 0.14949596 0.000490625
0002d0 a8 79 3b be c0 3c 8b bd 07 f7 1c bd 50 ba d0 3c
       -0.18308127 -0.067986965 -0.03832152 0.025479466
0002e0 fe fd 87 bd ee cd b7 3d 2b 24 f2 bd 4f ac 65 3d
       -0.06640242 0.08974825 -0.11823305 0.05607253
0002f0 f7 72 c1 be 82 c1 7c bd 60 55 1e be 50 47 a2 bd
       -0.37783024 -0.06170798 -0.15462255 -0.07923758
000300 83 17 94 3d 71 1e a4 bd 0e f7 f5 b9 e3 3e a9 3c
       0.07231047 -0.08013619 -0.00046914112 0.02065987
000310 b0 75 b8 bd 1e 45 d9 bd dd ef b4 be 9c f0 68 3c
       -0.09006822 -0.10608886 -0.3533925 0.014217522
000320 0b 2e c7 3d 60 9f 28 bd 37 6c 53 3e d9 7f 83 3b
       0.09725579 -0.041167617 0.2064675 0.0040130434
000330 dc 56 aa 39 c5 6b 1b 3e 9d c3 a4 bd 53 c0 c4 3c
       0.00032489642 0.1517783 -0.08045123 0.024017489
000340 14 16 58 be a8 b1 b2 bd c3 b9 fb bb b0 c4 d0 bd
       -0.21102172 -0.087252915 -0.0076820566 -0.10193765
000350 30 cf 05 be 76 75 bd 3d a7 0c 18 be b7 0f 83 3d
       -0.13067317 0.092509195 -0.14848576 0.06399482
000360 d4 36 06 3d 04 91 5a 3e d3 d3 4a 3e 17 50 74 3e
       0.032767132 0.21344382 0.19807367 0.23858677
000370 9d ab ce 3b ea 0e 29 bc ca 35 5c 3e 3f f0 36 be
       0.006307079 -0.010318497 0.21504894 -0.17865084
000380 e4 3e 32 3e 68 76 ea 3d 8f 44 5a be ea ce 45 be
       0.17406803 0.114483654 -0.21315216 -0.19317213
000390 5b 5e 67 3d 83 8d 82 be 92 4f e2 3d 83 c2 6e 3d
       0.05648647 -0.2549859 0.11050333 0.05829097
0003a0 34 0f cb 3c 9a e9 9e be 72 7f 00 3d e4 d6 13 3e
       0.024787523 -0.310376 0.03137154 0.14437443
0003b0 96 86 a8 3c 33 4b 89 bd 67 a9 91 be 13 ba dc be
       0.020571988 -0.06703796 -0.28449556 -0.43110713
0003c0 f1 48 52 be 2c af 71 3e 10 10 8c 3d cd c3 a6 be
       -0.20535637 0.23601979 0.06839001 -0.3257126
0003d0 af 0f a1 3d 43 52 99 bd b4 f1 4a 3e 84 0a 2b bd
       0.078643195 -0.07486393 0.19818765 -0.041758075
0003e0 2f 9b c4 3d 4b 30 8c 3c 71 eb 08 be eb de 8b bc
       0.095999114 0.017112872 -0.13371064 -0.017074069
0003f0 83 f5 07 be 25 5c 30 bd 31 8b 45 be db 4b 05 3d
       -0.13277249 -0.043056626 -0.19291379 0.032543045

onnx::MatMul_22 f4 [256, 256]
000000 10 f5 28 3c a7 66 f8 bd a2 63 f8 3c 3c 17 0b bd
       0.010312334 -0.121289544 0.030320946 -0.033957705
000010 65 a2 29 be 21 ab 43 be 77 0a 64 3c cd 5a 33 3e
       -0.16565855 -0.19108249 0.013918511 0.17515106
000020 2b 65 47 be 65 74 64 be 91 1f 81 3e 32 9d 41 bd
       -0.19472186 -0.22310026 0.25219396 -0.047269054
000030 99 52 10 be 5f 07 92 3d 76 85 f2 bb 19 00 58 bf
       -0.14094009 0.07130312 -0.0074011637 -0.8437515
000040 1e de bf bd 6c cc 64 be f3 7e 6f bd a3 1e a3 bd
       -0.09368537 -0.22343606 -0.058470678 -0.07964828
000050 bb 58 4b be d3 2d 8a bd 99 bb 37 3e 6e 45 80 bd
       -0.19858067 -0.067470215 0.17942657 -0.06263243
000060 1e 44 dd 3d 2e 21 b8 3e ff 44 79 3e ff f7 7e be
       0.10804008 0.35962814 0.24342726 -0.2489929
000070 6b 59 a1 ba 05 c2 a0 3d a6 00 0f ba 0b 92 e7 bd
       -0.0012309974 0.07849506 -0.0005455114 -0.11307152
000080 60 69 2b bc 1d 95 53 3e 73 bd 04 3e 1a 5c 89 be
       -0.010462135 0.20662351 0.12962894 -0.2682808
000090 b5 d3 15 3e ef ff 2b be 2f fc 16 3c dc 99 d2 bd
       0.14631541 -0.1679685 0.009215399 -0.102832526
0000a0 a8 00 11 3b 4c 6b 31 3e 35 42 be bd 1c a4 91 bf
       0.0022125635 0.17326087 -0.09289972 -1.1378207
0000b0 0b 2e a9 be a4 50 51 be ad 31 89 3d 9b f0 84 3d
       -0.3304294 -0.20440918 0.06698928 0.06491204
0000c0 cf 08 ec bd 2a f3 07 3e 7f 58 1e be db a9 ba bd
       -0.115251176 0.13276353 -0.15463446 -0.091144286
0000d0 f2 7c d0 be 1f 9e 2b bf 52 4f 09 3e 9e b6 a2 bd
       -0.40720326 -0.6703815 0.13409165 -0.07944988
0000e0 9e 26 cb bc 12 ed e8 bd cd 2b e0 be f9 67 e0 3c
       -0.024798688 -0.113733426 -0.43783417 0.027393328
0000f0 45 5d b5 3d de 5e 5a 3e d3 27 7c 3d 89 88 7f bd
       0.088556804 0.21325251 0.061561417 -0.06238607
000100 fc 5d d4 3d 90 bf 47 bf 52 d4 0c bb 47 29 5a 3e
       0.103694886 -0.78026676 -0.0021488857 0.21304809
000110 bc 10 a6 be a3 37 8b 3c 77 39 8e be d2 76 9a 3d
       -0.32434642 0.016994303 -0.27778217 0.075421944
000120 17 51 1f be 0b 2f a0 be 0b eb 72 bd e5 8a 3a be
       -0.15558277 -0.3128589 -0.059306186 -0.18217047
000130 8a 1c df be 5b 34 87 be c4 d7 d2 be 47 29 76 be
       -0.4357646 -0.26407132 -0.4118024 -0.24039184
000140 1d 25 47 be d0 a1 d8 3c 29 e7 01 3e 48 bf cf be
       -0.19447751 0.026444346 0.12685837 -0.40575624
000150 e8 b8 41 bc 99 67 25 be 12 e1 a2 bd 5e d2 9a bd
       -0.01182387 -0.161528 -0.07953085 -0.075596556
000160 c5 6d f1 bd d1 23 bd 3d 2b c1 a5 be cc 4c ef 3c
       -0.11788515 0.09235347 -0.32373938 0.029211424
000170 81 dd 86 bd e1 1e d8 3d d2 e1 c4 bd bc f1 c6 bd
       -0.06585217 0.10552765 -0.09613384 -0.09714076
000180 99 aa c8 bd 8a d2 73 be e5 94 25 be e9 03 7d be
       -0.09798164 -0.23810783 -0.1617008 -0.24708523
000190 90 e2 a8 3d ba 72 47 3e 79 ec 3b bf 2a 95 0d 3f
       0.08246338 0.19477358 -0.73407704 0.5530573
0001a0 53 25 e7 3c e3 e5 b1 3e ca 28 15 bd 31 14 f8 be
       0.02821604 0.34745702 -0.036415853 -0.48452905
0001b0 58 a4 0d be b8 da 04 be 88 5d 89 be 65 b5 3d bd
       -0.13832223 -0.1297406 -0.2682917 -0.04631557
0001c0 fc 85 6f 3d ec 4f 40 bc f1 a3 c0 3d 28 1c 13 3e
       0.058477387 -0.011737805 0.09406269 0.1436621
0001d0 b3 cc 47 3e a4 18 31 bf c2 bf b0 3d d0 67 d2 bd
       0.1951168 -0.69178224 0.08630325 -0.10273707
0001e0 9f d5 a6 3d 94 ee fc bd 77 23 78 3d 8e 83 95 3e
       0.08146214 -0.12350193 0.060580697 0.2920193
0001f0 aa d3 70 bf ee 8d bf bd d1 df 9b 3e d7 5e 7a bf
       -0.94072974 -0.09353243 0.30444196 -0.97800964
000200 fd e6 21 be 40 a5 a5 3e 0c 30 37 be 74 7f e7 bc
       -0.15810771 0.32352638 -0.17889422 -0.028259017
000210 03 6d 7f bc 2b 5f 2d bf 3d 83 b2 ba e0 af 72 3c
       -0.015589955 -0.6772334 -0.0013619434 0.01481244
000220 ab 03 f4 3d d5 a4 90 bd 51 bb 22 3d b3 d9 19 bd
       0.11914762 -0.07062689 0.03972942 -0.03756113
000230 fa a8 11 3e d6 22 07 be e4 03 7a 3b e4 b4 11 bf
       0.14224616 -0.13196883 0.0038149292 -0.5691664
000240 13 aa 51 be 65 b2 3a bd b0 e7 3d 3d 95 38 b1 bd
       -0.20475034 -0.045580287 0.046363533 -0.0865337
000250 45 ed b8 bd 87 2c bf 3c d7 07 bc 3d 99 b1 44 3e
       -0.090296306 0.023336662 0.09181183 0.19208373
000260 2e 68 ca be 5a 70 8e be 2f 6a 8d bd f9 f1 c0 3c
       -0.39532608 -0.27820092 -0.069050185 0.023552882
000270 51 d4 87 bd fb 21 04 3d c6 17 81 3d fd 24 bc 3d
       -0.06632293 0.03225897 0.063033625 0.091867425
000280 2d bf 4c bf 86 26 01 3e 55 fe ec be 50 ba 32 be
       -0.7997921 0.12612352 -0.4628779 -0.17453885
000290 73 48 b8 be c4 12 cd 3c ef 61 c5 be fa 37 a8 be
       -0.35992774 0.025033362 -0.3855128 -0.32855207
0002a0 45 43 36 bf d7 c7 73 3d 0a 0d af bf 62 97 14 3e
       -0.71196395 0.059516754 -1.3675854 0.14510873
0002b0 cb 3d 57 3e 9e ec 0d bf 3d f8 9e bd 26 a0 72 be
       0.21019666 -0.55439174 -0.077621914 -0.23693904
0002c0 1f 59 a0 bd c6 cd 67 3e 00 c1 02 be ac 05 a2 bd
       -0.078294985 0.2263709 -0.12768936 -0.07911238
0002d0 d0 9f 8c be 69 e6 82 bd 32 4a 1e 3d 60 d8 7e be
       -0.27465677 -0.063916035 0.038644977 -0.24887228
0002e0 21 fd b1 3d 9b e6 a2 bd 81 35 b0 bc 0d fc cc be
       0.08690859 -0.07954141 -0.021509888 -0.4003605
0002f0 d9 99 d8 bd a5 d0 76 be ad 66 62 bd 27 5e a9 3d
       -0.10576219 -0.24103029 -0.0552737 0.08269911
000300 d7 10 17 3e ca 37 0e 3e f8 6e 10 bf 8c 1a bb bd
       0.14752518 0.1388847 -0.56419325 -0.09135923
000310 32 4f df bd dd 04 85 3e a3 46 06 be a8 95 de be
       -0.10903777 0.25980273 -0.13112883 -0.43473554
000320 f4 f3 aa 3d 7a 7e 9e bc 60 76 f4 3d b1 c0 26 3e
       0.083473116 -0.019347418 0.11936641 0.16284443
000330 29 db 2a 3e 66 fc 09 bf d3 d3 3b be 81 0f f0 bd
       0.16685165 -0.53900754 -0.18342523 -0.11721707
000340 35 6e 8b bd 25 21 3f bd bd 36 e0 be c4 97 d1 3b
       -0.0680813 -0.04666247 -0.43791762 0.0063962657
000350 fa 85 34 3d 6f 96 db 3d 61 14 1d 3e 54 c6 d0 be
       0.044073083 0.10722052 0.15339805 -0.40776312
000360 6e 87 8a bd 42 1c 36 be bb b9 a4 3c 91 8b 4a 3d
       -0.067641124 -0.17784217 0.020108094 0.049449507
000370 46 47 94 bd a7 76 1e bf 8b e2 c0 3e 3d bf 92 be
       -0.07240157 -0.618998 0.3767284 -0.28661528
000380 29 9b c3 be 7e ed 73 bc e6 4e bd 3e 64 98 65 be
       -0.38204315 -0.0148881655 0.36974257 -0.22421414
000390 fc d1 dc 3d fa e4 90 3c 3f 6d c2 3d 10 83 60 be
       0.10782239 0.01768731 0.09493493 -0.21924996
0003a0 22 a3 f8 3d 19 58 a3 bc ea 9e 17 3b 80 d3 ef 3d
       0.1214049 -0.01993947 0.0023135492 0.11710262
0003b0 52 90 4c bf e3 21 51 bc 4d 67 5d 3f c8 48 d2 3d
       -0.79907715 -0.012764427 0.8648575 0.10267788
0003c0 ec 8a ba 3d b9 e7 b5 3d 63 0d a5 bc c1 f7 81 be
       0.091085285 0.08882088 -0.020147985 -0.25384334
0003d0 91 96 c3 bd eb 69 59 be 56 ed 06 3d 98 76 8c 3d
       -0.09550203 -0.21231811 0.032941185 0.068585575
0003e0 44 ec 12 3e d8 58 ed bd 34 20 13 3e 87 10 28 3d
       0.1434794 -0.11589211 0.14367753 0.041031387
0003f0 7a c8 29 bd 0c 20 65 3e 94 ab 1d 3e e3 e8 42 bd
       -0.041450955 0.22375506 0.15397483 -0.04758538

onnx::MatMul_23 f4 [256, 6]
000000 19 5b 83 3b d4 e5 82 be 4d 9d e9 3c d4 61 64 3d
       0.0040086624 -0.2556597 0.02851739 0.05575736
000010 fe 49 85 3e be ea 8c bd 98 95 9d bd e9 06 34 bd
       0.26033014 -0.06880711 -0.07694548 -0.043951903
000020 e7 0f 26 be f8 ac 1f 3e f0 ea c1 3d ca 0b bf be
       -0.16217004 0.15593326 0.09468639 -0.37313682
000030 0a ae 0a 3d c3 95 27 3f dd d7 52 bd b8 07 8f 3e
       0.033857383 0.65462893 -0.051475395 0.27935576
000040 91 dc a8 3e 9d fe a4 bd 8d 23 62 bc 4a ae b7 bd
       0.3298078 -0.08056376 -0.013802421 -0.0896879
000050 99 80 60 be 04 0b 36 3e 68 9b db bb d7 7b 4d 3e
       -0.21924056 0.1777764 -0.0067018755 0.20066772
000060 f7 00 d9 3d 26 5f 05 bd 65 3d ee be 0a a2 36 3e
       0.10595887 -0.032561444 -0.46531215 0.1783525
000070 30 77 0c be 87 25 46 bd 22 53 e8 be 4c e0 fd 3d
       -0.13717341 -0.048375633 -0.45375925 0.12396297
000080 69 23 06 be 44 c1 8b be b1 a1 19 bf 3e f4 b4 be
       -0.13099445 -0.27295887 -0.60012347 -0.35342592
000090 02 8a cb bd 00 3e 8e 3b 26 9c 9c 3e 13 d2 af 3c
       -0.09938432 0.004340887 0.30587882 0.021462476
0000a0 fe ec 6f 3d 8f e1 9d 3d 1c b7 01 3e 7b 64 9c 3c
       0.058575623 0.077090375 0.12667507 0.019090882
0000b0 91 15 2d bd ea fc dd bd 45 9d 69 3e 26 5a a4 be
       -0.042256895 -0.10839255 0.228139 -0.32100028
0000c0 33 06 8d be 56 bf 7f be ad 24 17 3e 1b 7c 09 be
       -0.27543792 -0.24975333 0.14760084 -0.13426249
0000d0 c3 36 83 bd 5c d1 c5 3c 2a e3 1f be 29 2e c4 bd
       -0.06406929 0.024147682 -0.15614 -0.09579117
0000e0 55 c8 bb bd 25 ef 6a 3c e3 1f 39 3e e9 1d 68 bd
       -0.0916907 0.014339243 0.1807857 -0.05666915
0000f0 73 ea 4b be 2e e2 07 3e 91 ee aa be 92 7b a1 3e
       -0.19913654 0.13269874 -0.33385137 0.3153959
000100 24 2f b3 3d 69 bd a6 bd 49 76 1f bd a5 92 0f bd
       0.08749226 -0.08141596 -0.038931165 -0.03505196
000110 9d aa 81 bb 9e 1d 96 3d 1e 2d 70 bd a9 09 49 3c
       -0.0039571063 0.07329868 -0.058636777 0.01227037
000120 d9 e7 f1 3d 06 f4 e8 3c c8 47 27 3f 31 a2 6d 3e
       0.118117996 0.028436672 0.65343904 0.23206402
000130 1e 7a 81 3e e8 cc a3 3e 2d e7 94 3e b2 c6 47 be
       0.2528848 0.3199227 0.29082623 -0.1950939
000140 e1 ed aa bd e7 5f 02 3e 9c 4c 95 3e 13 df 69 3d
       -0.08346153 0.12731896 0.2916001 0.057097506
000150 a5 35 a3 bc f7 a5 2c 3d 35 e3 94 3b 47 83 d2 3d
       -0.01992304 0.042150464 0.0045436868 0.102789454
000160 5c 60 db bd 28 e1 41 3d 97 6c 16 be 44 48 36 bd
       -0.107117385 0.047333866 -0.14689861 -0.04450251
000170 5a 5f 5b 3d f1 3f 85 3d 56 a3 92 3d 3e db 9f be
       0.05355773 0.065063365 0.0716006 -0.31221956
000180 cc a5 e7 bc b9 22 42 bd 18 b4 0b 3e 53 53 98 be
       -0.0282773 -0.047396395 0.13642919 -0.2975107
000190 bd 0b 84 bd 0c d3 89 3d a3 a3 4c be 3f fb 0b 3e
       -0.064475514 0.06729707 -0.19984297 0.13670062
0001a0 44 bb 64 bf 3b c3 01 be fc da 15 be f0 d7 97 be
       -0.89348245 -0.12672131 -0.14634317 -0.29656935
0001b0 d9 51 cd 3b d7 50 00 3f 5c a6 bd 3d 3a 9e 24 be
       0.0062658605 0.5012335 0.09260246 -0.16075984
0001c0 c8 0f dd be 83 c8 65 3e cf 25 93 3c de 6f 9d bd
       -0.43176103 0.2243977 0.017962364 -0.076873526
0001d0 24 d9 92 ba ab 6c 4a bd b6 b0 94 3e 30 89 a5 3e
       -0.0011203629 -0.04942004 0.2904107 0.32331228
0001e0 08 60 b6 bd 50 48 95 bd ee 29 d8 be 2b 96 2f 3d
       -0.08905035 -0.07289183 -0.4221949 0.04286782
0001f0 47 0e e0 be cb 28 c8 bd 58 54 52 bc 00 07 08 be
       -0.43760893 -0.09773406 -0.012837492 -0.1328392
000200 f3 a9 43 3c 2e 29 37 3e ac 0f 9a 3c e6 65 b8 3e
       0.0119423745 0.17886803 0.018806301 0.36015242
000210 d0 a9 05 be 30 21 bc 3e db dc f4 3d 92 87 32 3e
       -0.1305306 0.3674407 0.11956187 0.17434528
000220 72 9c d6 3d 04 7c 15 3e 9f 8b e6 3f 47 59 84 be
       0.10479058 0.1459809 1.8011359 -0.25849363
000230 25 d0 92 3f 51 8c 0c 3f 75 aa 43 3f 15 84 24 3f
       1.1469771 0.54901606 0.7643197 0.6426404
000240 d3 00 70 3e 9a 36 89 3d ec be ac 3e ad f6 2d 3d
       0.23437814 0.066998675 0.33739412 0.042471576
000250 00 6e 13 3d 9f 3e a9 3d d5 84 5a 3f ad 11 00 3d
       0.035993576 0.08263897 0.85358936 0.031266857
000260 a3 59 21 bd b3 39 b7 3e fe c1 83 3e 88 5f 44 3e
       -0.039392125 0.3578621 0.25733942 0.19177067
000270 6c c3 b9 be 2c 25 15 bf 97 2a 9d 3c 76 b8 80 bd
       -0.36281908 -0.58259845 0.019185347 -0.06285183
000280 28 49 bd ba fe ae 18 3e 2f c7 06 3e 40 b5 a0 3e
       -0.0014441358 0.14910504 0.1316192 0.31388283
000290 2b 73 0c 3e 90 92 ea be 0d 87 76 3f 2e 9b 3b be
       0.13715808 -0.45814943 0.9629982 -0.18320915
0002a0 55 c6 f7 3d bb 63 de 3b 31 02 16 3d 59 32 ae 3c
       0.12098376 0.006786791 0.036623184 0.021264242
0002b0 cf e9 3f 3d 38 53 98 bd 85 68 92 3d 3d 60 ec 3c
       0.046853837 -0.07437748 0.07148842 0.028854484
0002c0 a3 79 ad 3d 79 ab d2 3c 7f 21 bd bd 5e 81 a8 bc
       0.08470466 0.02571653 -0.092349045 -0.0205695
0002d0 e9 1a fe 3c d2 d6 32 bd 1e 94 a4 3e e0 ea d5 3e
       0.031018691 -0.0436619 0.32144254 0.41780758
0002e0 c2 00 2c 3d 5e 46 80 3e 2b 51 18 bf e3 f5 06 be
       0.04199291 0.25053686 -0.5949885 -0.13179736
0002f0 83 7e 17 3c 7a e6 9d 3e ce 9f 99 3e 1b 23 21 3c
       0.009246471 0.30839902 0.30004734 0.00983503
000300 16 bf b0 3d ef 95 10 bb 26 49 ae 3d 33 8d 22 3c
       0.08630197 -0.0022062024 0.08510046 0.00992136
000310 ee 47 5f 3d 1c 5c 3f bc d7 d0 9a bd f5 3b 16 3e
       0.054511957 -0.011679675 -0.07559364 0.1467131
000320 ea 7d 93 bd c9 2a f0 3e 85 ed c8 bc 92 8c c9 bb
       -0.072017506 0.46907642 -0.02452732 -0.0061507905
000330 4f c8 59 be 1c 1b d2 3d f9 88 71 be 04 ce 39 3d
       -0.21267818 0.10259077 -0.23587407 0.045362487
000340 16 de db 3d f0 1a ce be 1f 22 0c be 5f 70 7e 3e
       0.10735719 -0.40254927 -0.13684891 0.24847554
000350 38 87 90 bd e7 0f 27 bd bd 6a 27 be f7 d8 47 3d
       -0.07057041 -0.04078665 -0.16349311 0.0487909
000360 be 39 8b be 3d 68 3d be 2c 3d a7 be 9a 27 56 3e
       -0.2719249 -0.18496795 -0.32663858 0.20913544
000370 88 bc 00 be 76 47 b5 3d 23 71 be be aa 15 35 bf
       -0.12571919 0.08851521 -0.3719569 -0.7073618
000380 ac 1e f3 bd 69 c1 80 3d e5 41 47 bd f7 78 da 3a
       -0.118710846 0.0628689 -0.048646826 0.001666813
000390 46 ec 3b 3c 9e b7 d4 3d 0c 39 7b be 83 01 a3 bd
       0.011469906 0.10386585 -0.2453348 -0.07959273
0003a0 47 5e 2f bd 7c 14 29 3e 52 ad 68 be a5 ca 1b 3e
       -0.04281452 0.1651172 -0.22722366 0.15214022
0003b0 a8 c4 ab be cd ad ea 3e ff 74 76 ba b3 52 ab bc
       -0.33548474 0.45835724 -0.0009401589 -0.020913457
0003c0 4a 26 6a 3d 09 e2 6e bd 39 e1 c1 3e e3 83 27 be
       0.05716542 -0.058321033 0.37867144 -0.16358905
0003d0 7a e9 0b 3c b2 77 07 3f f0 c9 02 3e f2 91 17 be
       0.008539552 0.52917016 0.12772346 -0.14801767
0003e0 31 c8 fa 3e 9f 23 1f 3e c5 5d d9 3d de 54 10 3e
       0.4898086 0.15540932 0.10613588 0.14094874
0003f0 9c da 0b be 49 fd 77 bc 04 73 ff 3d c8 fa 00 be
       -0.13657612 -0.0151360715 0.12473109 -0.12595665
